models/pastAI.tflite (tflite, 472236 bytes, 13 tensors)

sequential/dense/MatMul/ReadVariableOp/transpose f4 [144, 300]
00000000: 0b98 8fc0 d6a5 4d3f 07e7 ca3f bc0e d8bf
00000010: b647 94bf 8c2a d3bf 83d9 3dc0 8485 8ebe
00000020: 3672 2940 a6d7 c33f 7d21 743f f7f3 6bbf
00000030: 8597 aabe a884 0040 f8d1 2bc0 0d4a 72be
00000040: bfe5 d63f 34e0 09bf 2458 11c0 4c11 55c0
00000050: 79e1 47bf 9e26 09c0 1a89 ed3e eb2f b0bf
00000060: 90ae ee3f 9ac9 1e3d 2713 6bbc a891 ddbe
00000070: 40f0 a53e a193 cbbf 5ead 68bf a619 73be
00000080: 5041 02c0 d2cc d43e 0df7 09c0 711b 0fbf
00000090: 438c 8bc0 fab3 943d 6c9e e5bf 8bf6 773e
000000a0: 731c 9ec0 1094 483f 5c86 64bf 9fbe a5be
000000b0: e2e3 393f a952 bdbc f82c 56be 15f5 ee3f
000000c0: 3210 55c0 7012 01bf f0e8 25c0 0980 a3be
000000d0: ed8f e2bf 51d9 2bc0 5e53 00c0 3272 b83e
000000e0: dce8 8cbe 4886 48be 3c94 9a3e 6022 443f
000000f0: b919 1fbf 20b8 243f 4c94 5f3e 7f3f a8bf
00000100: fbe7 2abf 3c47 30c0 420d aa3f aecb 64be
00000110: d4ef b53f 9331 6c40 b276 683f e7f9 803e
00000120: d256 68c0 d22c d3bf 9a80 05c0 5768 99bf
00000130: 8ef8 2740 b2d8 47c0 f4eb 0340 5c16 8ac0
00000140: 313e 01bf 8bce 6ac0 bfef 82c0 a83b eabf
00000150: ca82 3f40 b015 9cbf 241c c8be 63a2 a93d
00000160: 5ea5 903f 8983 25bc 901a 89bf 4584 d340
00000170: 0f9d 5240 76e9 ddbe 3fba 85bf a7f4 85bf
00000180: 0105 d03e 0a70 2c40 5632 16c0 7059 c53f
00000190: 283a ac3f 2bf2 eebe 016f 41bf 1281 ae3e
000001a0: a48e 94bf b0e4 5dbf bdc3 adbc 5b14 89be
000001b0: b571 95bf 09f0 4540 5642 6d40 5639 71c0
000001c0: 0ef4 1abf e827 3abe 1f4f c9bf 34ed 903e
000001d0: 0ae1 97bd ee66 f03e c538 933f dba1 9cbf
000001e0: 9347 343f 0e6d 41c0 44dd b9bf e732 ae3f
000001f0: 88b0 aa3e 87df e2bf 680c b3c0 61fc 3940
00000200: 7534 6040 9718 6b40 7247 f3bf d11b c93f
00000210: 5488 a9bf 4251 3540 9b08 23bf 8184 893f
00000220: fa24 c8bf 2f5b c4bf 8e21 73bc 864c 0bc0
00000230: 2af1 1240 df98 c73f 5f70 13bf cc64 71bf
00000240: 8898 8c3e 9696 cf3e 4d37 2bbe aded c33e
00000250: ef00 f8bf 01ee ab3e 0a3c 82bd ae06 d9bd
00000260: 1bde 3bc0 2e50 3740 a5e1 6b3e 402e 04c0
00000270: 3be7 95c0 3529 2c40 580f 35be 9b8e 813e
00000280: b57a e13e 5fe5 973f 4efc 1340 4805 6f40
00000290: c734 b43f a870 e7be d1d9 7bbf 6504 493f
000002a0: 8239 d53f 9016 9e3f 55d4 473f 17e5 8f3f
000002b0: bc2c 9d40 a018 dd3e a50b 993d 2fd8 8f3f
000002c0: 178e 663f 79fb 553d 7178 4bbf 343a e13f
000002d0: c7b1 ac3f ffda 8840 332f 5f40 c257 b23e
000002e0: ee9c 523f 23ee fd3f 09e8 d13f e5b2 1540
000002f0: b7db 893e a052 293f b8b2 133f 7088 5e3e
00000300: 2174 33be 2e9c 9e3e a029 ba3e f8e7 743e
00000310: 0a6e a53f 9537 0b3f aa56 243f b4eb 1d3f
00000320: 321f 3440 2d16 3e40 20dc 40be 984c e73f
00000330: 3ee9 923d ba0d 933d 2aea a5bf b682 b4bf
00000340: be7d 63c0 b1c7 8640 8dbb c63f c3eb 0cc0
00000350: b3c2 4c40 235f 743f 234e b53e afb0 ac3e
00000360: 6ae6 843e b605 8f3e 3ab5 d53f 486a 9ebc
00000370: 946c b6bf 9fef a03f 8f43 b73f b91c 1640
00000380: 6dad 1640 e313 2c40 533e 31bf dbf6 95c0
00000390: 6a2b 17bf d9f6 ec3f f668 983f fa19 9a3f
000003a0: 154d 4740 504e 5d3f 7669 12bf 8b14 53bf
000003b0: 10e5 6a3c 7cc0 093d 702d a93c 40ae 3ebc
000003c0: b84d 543d a6a3 db3d c495 c6bd 200d bebb
000003d0: b0a6 2c3d 2071 a7bb 4c9d b73d 407b 1e3c
000003e0: 4054 893d 4ab2 c43d 78e5 1e3d ccc6 42bd
000003f0: 1019 4b3c ae7e a9bd 4ceb c4bd 3c5a 52bd
-4.48731 0.8033117 1.5851754 -1.6879497 -1.1584384 -1.6497359 -2.9664009 -0.2783624
2.647596 1.5300186 0.953636 -0.92169136 -0.33318725 2.0080967 -2.6846905 -0.2366106
1.6788863 -0.5385773 -2.2710047 -3.3291807 -0.7807842 -2.142982 0.46393663 -1.3764623
1.8647022 0.03876648 -0.014347828 -0.4327519 0.3240986 -1.5904428 -0.9088954 -0.23740253
-2.0352364 0.41562515 -2.1557038 -0.5590125 -4.360872 0.0726089 -1.7938972 0.24215142
-4.940973 0.78350925 -0.89267516 -0.32371995 0.72613347 -0.023110704 -0.20915592 1.8668543
-3.3291135 -0.5041876 -2.5923424 -0.3193362 -1.7700173 -2.685139 -2.0050883 0.36024624
-0.27521408 -0.19582474 0.3019122 0.7661495 -0.62148625 0.6434345 0.21833915 -1.3144377
-0.66760224 -2.7543478 1.3285296 -0.22343323 1.4213815 3.6905258 0.90806115 0.2519066
-3.630299 -1.6498053 -2.0859742 -1.1984967 2.6245456 -3.122601 2.0612764 -4.3152294
-0.5048552 -3.6688564 -4.091766 -1.8299456 2.9923577 -1.2194118 -0.3908397 0.08282926
1.1300466 -0.010102161 -1.0711231 6.609896 3.290836 -0.4334218 -1.0447463 -1.0465287
0.40628818 2.6943383 -2.3468223 1.5417919 1.3455248 -0.46669134 -0.75560004 0.34082848
-1.160603 -0.86677074 -0.0212115 -0.26773342 -1.1675326 3.0927756 3.7071738 -3.7691245
-0.6052865 -0.18179286 -1.5727271 0.28305972 -0.0741597 0.4695353 1.15017 -1.2236894
0.70421714 -3.0222812 -1.452065 1.3609284 0.33337808 -1.7724465 -5.5952644 2.906029
3.5032017 3.6733758 -1.9006178 1.5711614 -1.3244729 2.8330846 -0.63685006 1.0743562
-1.5636284 -1.5340327 -0.014839543 -2.1765456 2.2959695 1.5593528 -0.5759334 -0.9429443
0.27460122 0.40544575 -0.16720314 0.3826727 -1.9375285 0.3358002 -0.06359108 -0.10596977
-2.9354312 2.8642688 0.23035295 -2.0653229 -4.6844764 2.690015 -0.17681634 0.25304112
0.4403893 1.1866874 2.3122745 3.7346973 1.4078606 -0.45203137 -0.98379236 0.7852233
1.6658175 1.2350636 0.7805837 1.1241788 4.9117107 0.4318285 0.07472924 1.1237849
0.9006056 0.052241776 -0.79480654 1.7595887 1.3491753 4.276733 3.4872558 0.3483258
0.82270706 1.9838299 1.6398937 2.3390439 0.26925442 0.661417 0.5769458 0.21731734
-0.17524768 0.3097853 0.36359882 0.23916614 1.2924206 0.54381686 0.6419474 0.6168778
2.814404 2.9701035 -0.18833971 1.807025 0.07173394 0.071803525 -1.2962086 -1.410239
-3.5545497 4.2118764 1.5525986 -2.2018898 3.1993835 0.9545767 0.35411176 0.3372855
0.25957042 0.27934045 1.6695931 -0.019337788 -1.4251885 1.2573127 1.4317492 2.345503
2.354335 2.6887138 -0.69235724 -4.6863837 -0.5905062 1.8512832 1.1907032 1.2039177
3.1140797 0.8644762 -0.5719217 -0.8245322 0.014336839 0.033630833 0.02065155 -0.011638224
0.05183193 0.10724573 -0.09696534 -0.0057999045 0.042151153 -0.005109921 0.08965549 0.00967294
0.067055225 0.096043184 0.038793057 -0.04755287 0.012396112 -0.08276115 -0.09615192 -0.051355585

sequential/dense/MatMul_bias f4 [144]
00000000: e67d bdc0 d1d9 f7be 3e03 a4c0 c0d2 77c0
00000010: b217 c2be 6e08 85c0 0a00 6abf 07db 713f
00000020: 2f74 e0bf f9c3 99c0 cc86 96c0 9708 55c0
00000030: 0ad5 40c0 9b00 1dc1 42a4 99c0 30b3 c6c0
00000040: 4fc4 aac0 21b2 06c0 1fd9 32c0 19a1 dac0
00000050: 1042 35c0 7ae4 b7c0 a36c 58bf 8fd6 303f
00000060: 7862 d5c0 e9f6 57c0 8193 21c1 78bc e8c0
00000070: b34d 4dc0 e2f6 c7c0 6628 1bc0 1058 7fc0
00000080: 1b79 88c0 3448 3fc0 7cff 3ac0 a808 09bf
00000090: e28c 07c0 6805 a5c0 5696 cfbf 2700 b5bf
000000a0: 1093 14c0 5c37 23c0 1c9d 54c0 ccf7 8ac0
000000b0: 1f7a 4dc0 35fd 44c0 0bdc c9bf 1edf 5cc0
000000c0: c8e8 a5c0 107f a7bf 88e5 4fc0 163b c0bf
000000d0: 7438 acbf d380 35c0 8f69 d7c0 7560 433e
000000e0: c48c 1bc0 3236 c8c0 c911 83c0 79a6 67c0
000000f0: dd2f 8ebf eaa7 76c0 2f8b fabf 7931 f7bf
00000100: 6d35 bac0 11a4 53c0 6db0 5ec1 e51e b0c0
00000110: 1947 93c0 eac2 09c1 b93c 64bf 85eb 64c0
00000120: 3640 08bf 5d86 a4c0 3bee 92c0 7486 dec0
00000130: 1984 37bf 490a fbc0 fe74 10c1 f2d9 22c0
00000140: 7f7f 72c0 2841 dfbf 3f42 30c1 0b30 af40
00000150: 0d12 0ec0 458f d6c0 6d4e fcbf 4cd8 50c0
00000160: b127 71c0 9708 28c0 f8cf 4a40 f26c 26c0
00000170: 6c6a 48c0 497e 9bbf a044 0dc0 4ae3 3cc1
00000180: 9128 63c0 899b 8fc0 9407 cbbf 3744 c9bf
00000190: ef49 cec0 f328 c5bf 5ecd 1bbf 51c0 bac0
000001a0: 0db6 c4c0 247e 6dbf c129 c5c0 5d2d 2ebf
000001b0: 7c0b 34c0 4341 55c0 7f26 37c0 e9b9 36c0
000001c0: a5df 8ec0 4670 f2bf ad5e 4dc0 7087 87c0
000001d0: 2721 0dc0 401a 38c0 9863 c6bf f73b eabe
000001e0: 8dcd b1bf 5daf b9c0 fa57 a3bf 29d9 2fc0
000001f0: 3625 04c0 9024 1dc0 1fae 923f 2588 a2c0
00000200: d687 c3bf 44d1 a4c0 2bcf 8fc0 1b07 8ec0
00000210: 6bb9 bfc0 744c d2c0 6edc 8ac0 80e7 bbc0
00000220: bd99 f0bf e438 14c0 7e6c bfbf 18cf 553f
00000230: 1e07 f2c0 5ed7 54c0 40cb 8cc0 8446 7dc0
-5.9216185 -0.48408368 -5.125396 -3.8722382 -0.37908703 -4.157279 -0.9140631 0.94474834
-1.7535456 -4.8051724 -4.7039547 -3.3286493 -3.0130029 -9.812648 -4.801301 -6.2093735
-5.3364635 -2.1046221 -2.794502 -6.8321652 -2.8321571 -5.74664 -0.84540766 0.6907739
-6.66827 -3.3744452 -10.098512 -7.2730064 -3.2078674 -6.248887 -2.4243407 -3.98975
-4.2647834 -2.988782 -2.9218435 -0.53528833 -2.1179738 -5.15691 -1.6217754 -1.4140671
-2.321476 -2.5502539 -3.3220892 -4.3427486 -3.2105787 -3.0779545 -1.5770277 -3.451118
-5.1846657 -1.3085651 -3.2483845 -1.5018032 -1.3454728 -2.8359878 -6.7316356 0.19079764
-2.4304667 -6.2566156 -4.095921 -3.6195357 -1.1108357 -3.8539987 -1.9573725 -1.9311973
-5.8190217 -3.3068888 -13.918073 -5.5037713 -4.602429 -8.610086 -0.89155155 -3.576875
-0.5322298 -5.141402 -4.591581 -6.9539127 -0.7168594 -7.8450055 -9.028563 -2.5445523
-3.7890317 -1.7441759 -11.016173 5.4746146 -2.2198517 -6.704989 -1.9711434 -3.2632017
-3.7680476 -2.6255243 3.1689434 -2.6003995 -3.1314955 -1.2147914 -2.2073135 -11.8054905
-3.549351 -4.487736 -1.5861688 -1.5723943 -6.446525 -1.5403122 -0.6086024 -5.835976
-6.147223 -0.927706 -6.161347 -0.6803797 -2.813201 -3.3321083 -2.8617246 -2.855097
-4.4648004 -1.8940513 -3.2089036 -4.235283 -2.2051485 -2.8766022 -1.5499144 -0.45748875
-1.3890854 -5.8026567 -1.2761223 -2.7476294 -2.0647712 -2.4553566 1.1459388 -5.079119
-1.5275829 -5.150545 -4.494039 -4.4383674 -5.991384 -6.5718327 -4.339408 -5.8720093
-1.8796917 -2.3159723 -1.4954984 0.83519125 -7.563369 -3.325645 -4.399811 -3.957429

sequential/dense_1/MatMul/ReadVariableOp/transpose f4 [400, 144]
00000000: 5b1a a73e a14c 50be 3638 683f ca84 823f
00000010: 2f9b d0bf c68d 883d 62a5 b5bf 3ef3 b8be
00000020: e469 4f3e 2ae0 2b3f cb89 a0bd 6834 19be
00000030: c609 a0bf a58a 9abf 2c55 b6bf 4c57 4d3e
00000040: ad71 f53e 5146 d5bf bdfe 8abf f8c7 1dbe
00000050: b6d4 30c0 3b79 0fbf dff6 493f 7e24 8dbe
00000060: 04de c83e e60f 88c0 19bc 8f3f ccdb 853e
00000070: 78b5 d2bf 0281 e2bf 48e1 43c0 186a 0c3e
00000080: 0733 b13f f289 dcbf d6ff 463f 33de d1be
00000090: beff 17be df40 d7bd a2a0 34bf 025b 8cbd
000000a0: 7fdd acbe 7c77 d83e 11c7 3f3f dc83 0840
000000b0: 9098 973f 6ccf 753e 2b1d 19c0 fe9b c8bf
000000c0: 4866 81be f21d b73f dc37 98bf f91f 763f
000000d0: d3e9 10bf 2b0a e5bf aa6d 8c3f da74 5dbe
000000e0: 3143 033e 380f d3be 6b87 54bf 4f05 0bc0
000000f0: 4b17 ebbd 7ed5 8e3f 2c59 0d40 b66c 203f
00000100: 2b7a 6a3e 7a4b 32c0 3115 6040 5a52 e9be
00000110: 9afa 22bf 5fdc 0940 37c5 a3bf e339 603f
00000120: 1381 4abe 0bdb 18bf d603 013f 6cf3 b33d
00000130: 9863 67bf 6eab c53f 2e19 1840 af4c 1e3f
00000140: 4de6 37c0 acbb 55bf 77db 073f cb85 13bf
00000150: 8128 b4bf e0ce 663f 4d47 0d40 54f8 9c3f
00000160: 0591 8c3f 7832 363f 76c8 ef3f 51c5 9b3e
00000170: e4bf 24bf 0be1 0ac0 c96e 503d 9556 853f
00000180: bea0 85be 4e85 aabf 49e2 803f 6de4 17c0
00000190: 2955 c83f 78dd 5b3f a3bb 483f 9bc8 f43f
000001a0: ab2b dc3f 4063 b63e d774 e8be ed9a 293d
000001b0: d818 513f f953 8abf d3f3 c7bc 443e 8e3f
000001c0: 5866 72bf 86f7 d13f 58f9 fd3e c0e7 0fc0
000001d0: c193 fd3e f081 fabf 3efe 143f 5a16 16be
000001e0: f635 bc3f d633 10c0 6f09 0e3e d466 393f
000001f0: e67c 60bf 0899 f63f 36e4 f13e 0675 91bf
00000200: 74b9 35c0 a509 adbe bb73 25bf 565a d9be
00000210: 0283 aebd ec43 0d3f 85f6 83bf 5129 e1bf
00000220: af58 3ebf 5893 0bbe 2824 2bc0 3df9 833f
00000230: 43af 0fc0 7243 99bf 55a0 dfbf c754 04c0
00000240: e403 7b3c b3d5 4dbd faad eabd a063 383d
00000250: 8302 2ebd 50ed 9b3d be55 433d 4034 bc3c
00000260: dcaa 9cbc 0885 e0bd 5560 a1bd 6bbc 19bd
00000270: 7a12 47bd c386 a2bd e36a a8bc 2c33 8bbc
00000280: 44af 3a3d 93f1 ecbd 47aa b8bd 4409 f9bd
00000290: f8e9 c2bd 1f95 94bd a190 e0bd 3d3c 513d
000002a0: cc02 0ebd b96a 90bd c9fe eebd 6ada 17be
000002b0: 4436 003d 27bd 77bd d8f3 debd 00ca 993a
000002c0: 4cf6 473d df52 21bd fa29 0cbe d361 0bbe
000002d0: a804 b8bd 5962 783c b477 253d 1fc1 a4bd
000002e0: 3bdf adbd e3fc 09be 85dd b4bd b8ad d33c
000002f0: e79d fdbd 2cef bdbd 1028 5bbd b28c 913d
00000300: 2378 7abd 353e 90bd 1fb0 c7bd 19a8 0bbe
00000310: 595c 08be fd4e af3b 6c2f 1cbe a9a9 76bd
00000320: f0f7 bfbd 9eda a4bb 63fa 99bb 20e9 b7bd
00000330: d423 b13d 123d 9abd 53d4 5ebd a80f 803d
00000340: 4036 4e3c 7e41 01be ea99 8e3c a73e ffbb
00000350: 96c0 693c fa85 2fbd 0392 063d 9310 e83d
00000360: 01c1 a43c c25c 88bd cc25 2ebd f583 08be
00000370: 06c2 19be 96af 3ebd ca0c c2bd aeb3 83bd
00000380: 3a22 99bd 8135 acbd cca7 193d 31f1 2dbd
00000390: dbe8 0b3d 93ab 05bd 425c 5cbd b50d fabd
000003a0: d8fb abbd 24f9 d3bd e288 cbbd d88b 3cbd
000003b0: d02f 90bc 8577 78bd 0fb3 68bb 5e14 9dbd
000003c0: b046 0cbe fcbd e23b 905f de3c ed3e 70bd
000003d0: f2cd 9c3c aa6d 323c c7d1 65bd f6cc 09bd
000003e0: 9323 683d 26f4 28be 4d6f 023d 391c a4bd
000003f0: ce93 8ebd 1698 c7bd c112 25bd 0734 453c
0.32637295 -0.20341732 0.9071077 1.0196774 -1.6297358 0.06667666 -1.4191096 -0.3612308
0.20255238 0.6713892 -0.07838782 -0.14961398 -1.2502983 -1.2073561 -1.4244742 0.20052832
0.4793829 -1.6662084 -1.085899 -0.15408313 -2.7629828 -0.5604436 0.7889232 -0.27566904
0.39231884 -4.2519407 1.1229278 0.26144254 -1.646163 -1.769562 -3.060625 0.13712347
1.3843697 -1.7229598 0.77734125 -0.40989837 -0.14843652 -0.1051042 -0.70557606 -0.06853296
-0.33762738 0.4227866 0.74913126 2.133048 1.1843433 0.24004906 -2.3924053 -1.5672605
-0.25273347 1.4306014 -1.1892047 0.96142536 -0.5660679 -1.7893728 1.0970967 -0.21626607
0.128186 -0.41222548 -0.8301913 -2.172199 -0.11479052 1.1158903 2.2085676 0.6266588
0.22898166 -2.7858567 3.5012934 -0.45570642 -0.6366364 2.1540754 -1.279456 0.8758833
-0.197758 -0.59709233 0.5039648 0.087866634 -0.90386343 1.5442941 2.3765368 0.6183576
-2.8734314 -0.8348949 0.5306925 -0.57626027 -1.4074861 0.90159416 2.2074769 1.2263284
1.0981756 0.7117076 1.8733051 0.30423978 -0.643553 -2.1699855 0.050886903 1.0417048
-0.260992 -1.3321931 1.0069057 -2.373317 1.5650989 0.8588481 0.7841131 1.912372
1.7200826 0.35622597 -0.45401642 0.041407514 0.81678534 -1.0806876 -0.024408257 1.1112752
-0.94687414 1.6403663 0.49604297 -2.24852 0.4952679 -1.9570904 0.5820044 -0.14656964
1.4703968 -2.2531638 0.13870786 0.7242253 -0.8769058 1.9265451 0.47244424 -1.1363838
-2.8394442 -0.3379642 -0.64629716 -0.42451733 -0.085210815 0.55181766 -1.0309607 -1.7590734
-0.7435407 -0.13630426 -2.6740818 1.0310436 -2.2450721 -1.1973708 -1.7470804 -2.0676744
0.015320752 -0.050252628 -0.11458965 0.045016885 -0.042482864 0.07613623 0.047689192 0.022974133
-0.01912444 -0.10962874 -0.07879702 -0.037533205 -0.048601605 -0.0793586 -0.02055878 -0.016992174
0.045577303 -0.11569514 -0.09016853 -0.121599704 -0.09517282 -0.07255005 -0.10965086 0.05108284
-0.034670636 -0.07051606 -0.1166969 -0.14829412 0.03130175 -0.060483124 -0.10886353 0.0011733174
0.04881887 -0.039385673 -0.13687888 -0.13611536 -0.08985263 0.015160167 0.04039736 -0.080446474
-0.084898435 -0.13475375 -0.08831314 0.025839671 -0.12383633 -0.09274134 -0.053505003 0.071069136
-0.061149728 -0.07043115 -0.09750389 -0.13638343 -0.13316478 0.0053499923 -0.15252465 -0.060220394
-0.09373462 -0.005030944 -0.004699038 -0.08980012 0.08649412 -0.075311795 -0.054401707 0.06252986
0.012586176 -0.1262264 0.017407376 -0.007789451 0.0142671075 -0.04285238 0.03285409 0.11331286
0.020111563 -0.06658317 -0.042516515 -0.13331588 -0.1501542 -0.04655417 -0.094750956 -0.064307556
-0.07477231 -0.084086426 0.03751354 -0.042466346 0.034157615 -0.03263433 -0.05379892 -0.12209646
-0.08397645 -0.10350254 -0.09938218 -0.046031803 -0.017600924 -0.060660858 -0.0035507118 -0.076699
-0.1369884 0.0069196206 0.027145177 -0.05865376 0.019141171 0.010890404 -0.056108262 -0.03364273
0.05667455 -0.16499385 0.031844426 -0.080131955 -0.06961785 -0.09745805 -0.04030109 0.01203633

sequential/dense_1/MatMul_bias f4 [400]
00000000: 70df 4c40 3c87 cbbd b5ba 1bc0 8f12 8fc0
00000010: a00b a9bd cf7c d5bd 80c7 3cbe 4e32 39c0
00000020: ea01 e4bc f986 1dbf 590b 96be ed47 f0bf
00000030: e1a0 e43f 8226 71c0 a62e 25be d197 a0bd
00000040: 48e4 91bd 707f 6ec0 6d23 82c0 a6de cc3f
00000050: 90d8 063f 8166 cabd 1d4f 0c3f 33ad 0cc0
00000060: f1a9 31c0 a02f b1bd 87df 16bf eef7 3dc0
00000070: 1a7c 18be f37c 63bd 9ac8 fbbd 5b90 ad3e
00000080: 65a5 b3be 3333 c8be e04d 10c0 e9e4 01be
00000090: ba38 e5bd 1aae a8bf 848f 22be 1348 8ebd
000000a0: 9649 04c0 756f a8bf 0465 20c0 7682 e9bd
000000b0: 14fe c2bd 77ad 513f d175 72bb 4d57 863f
000000c0: 2397 bbbf 5c36 64be 2dd5 02c0 8cb6 89c0
000000d0: 8e90 c4bf 09d7 e1bf 02e6 b0c0 ae60 46c0
000000e0: 3e95 84c0 0c7a d2bd f6a7 993e 434e 34be
000000f0: dbfa 4bc0 35f7 103f e9f6 b5bf 7818 2abe
00000100: 57c7 20be 7342 d2bd ba9a 16be 7d88 e2be
00000110: 8463 2b40 8f4a a43e 5045 f2bd 5a63 61be
00000120: 26c0 cdbf fdf1 c6be 56ca 85c0 0170 f2bf
00000130: 8aba 9d3f 7820 83bf 397d 32be a6a5 963e
00000140: 61b2 f6bd 34c4 36c0 9225 b03f e5d7 5140
00000150: 1517 3dc0 6803 c4bf dc4e a9bf e09a 88c0
00000160: c9f3 56bd a7bf 0fbe b433 04be 278b 9dbf
00000170: 4bb2 14c0 4345 33be 0d6e babf 330e c3bd
00000180: eace 1abe 192c 633f 7aef 47c0 ac06 1cbd
00000190: f113 883f c20d 45c0 118e 35be 0d5b 79be
000001a0: a963 b5bf 1e07 76c0 43b8 ef3c 93ac 20c0
000001b0: 8d01 8ebf 013e b8bd 13d1 93bd d9c1 0fc0
000001c0: b6ca 0abe b620 11c0 0e6a 4fc0 6d4a 1ec0
000001d0: 5221 8140 23f2 a4bf 2116 6ec0 0808 d1bd
000001e0: 834a 05be 21fc 2fc0 c47f dcbf 1f31 cdbf
000001f0: 6652 3fbe eb04 97be 14ec d2bd 5e9f 5140
00000200: 0955 f7bf 8dc9 c0bf edb6 2c3d 9505 c5bd
00000210: ae78 a1bd 3fe2 7c3f d4bb a5be 4fcf bdbd
00000220: b858 f3bf 20ab 7fc0 108d 43be c31e dcbf
00000230: 74c0 51be 44f1 8dbe 6cc7 5e3d afe6 84bf
00000240: 085c f83d 035f 2fc0 4295 ddbf 8216 02c0
00000250: 7105 0cc0 f0cd e03d c057 2340 b9c5 a6be
00000260: c254 09c0 7b96 9fbf 1f29 01be cb59 a8bd
00000270: 4dd6 5bc0 2add c8bd 186f cbbe 90ea d3bd
00000280: 926b b6bf 6b59 2ac0 793b 16c0 9046 5ec0
00000290: b5a3 03be 70b6 71bf 4464 21c0 92b5 263f
000002a0: 6b51 9bbf d4c2 f0bf 068e 78c0 866f c23f
000002b0: 95d8 13be 6748 38c0 306f b5be 899a 95c0
000002c0: 8c73 a1be 8a46 b3bd a1ad e2bf a778 1cc0
000002d0: 2937 9bc0 f0f7 8dbe 2008 2fc0 543e f7bd
000002e0: e83a 0cbe f18b 43bf 36d3 74bd 2cbc 59bf
000002f0: 0102 4ebe 5347 f3bf be50 aabd 8614 ce3f
00000300: 140c b1c0 7d12 e8bd 6458 b7be 5194 71c0
00000310: 3ecd ddbe 0aea 68c0 3948 3840 5966 d5bd
00000320: fcb6 0a3e 3652 07c0 a029 3940 3b05 b4bf
00000330: 74c4 653d f7b4 61c0 ed2b 6fc0 68e5 50c0
00000340: 9313 e2bf 2863 febf 92fd 0bc0 a548 00c0
00000350: 6056 d9bc 0679 92be f52c ebbe 99fa 50c0
00000360: 015e a03f 8ccd 1840 77bf 48c0 916e 9ebe
00000370: 4f58 de3f 8bc9 8cbd 486d 05be d754 903e
00000380: 8ba7 cfbf d92f 3940 7bde b8bf fca8 47bf
00000390: 153d 9bbd c7ee dfbe 0a90 fcbd 8a19 1ec0
000003a0: 00d4 1bbe 822b e2bf e670 22c0 682d 1fc0
000003b0: 51c2 2ec0 cdf8 3340 b691 8ac0 2ad4 66c0
000003c0: 849a 4bc0 b8de 81be b1ab 1fc0 9901 68c0
000003d0: ec48 51c0 e9df 5ac0 6917 babf 895c fdbd
000003e0: a458 53bf 5198 1140 f659 8d3f 60c8 a0bd
000003f0: e719 8c3e 8557 ebbd 0d8d 2fc0 9b77 9540
3.2011375 -0.09937903 -2.4332707 -4.4710155 -0.082541704 -0.10424196 -0.18435478 -2.8936954
-0.027832944 -0.61534077 -0.29305533 -1.877195 1.7861596 -3.7679753 -0.16131076 -0.07841457
-0.07123619 -3.7265282 -4.0668244 1.6005447 0.526742 -0.09882832 0.5480822 -2.1980712
-2.7759974 -0.08651662 -0.58934826 -2.9682574 -0.14891091 -0.055539083 -0.12294121 0.33899197
-0.35087124 -0.39101562 -2.254753 -0.12684979 -0.1119246 -1.3178132 -0.1587506 -0.06947341
-2.0669913 -1.3159014 -2.5061655 -0.114018366 -0.09521118 0.8190531 -0.0036996494 1.0495392
-1.4655498 -0.22286361 -2.0442612 -4.3035336 -1.5356615 -1.7643749 -5.528077 -3.0996509
-4.143218 -0.10277185 0.30010957 -0.1760798 -3.187186 0.5662721 -1.4215976 -0.16610897
-0.15701042 -0.102665804 -0.14707461 -0.44244757 2.677949 0.32088134 -0.118296266 -0.22010556
-1.6074264 -0.38856497 -4.180949 -1.8940431 1.2322552 -1.0244284 -0.17430581 0.29423255
-0.12045742 -2.8557253 1.3761466 3.2788022 -2.9545338 -1.531354 -1.3227191 -4.2689056
-0.052478585 -0.14037953 -0.12910348 -1.2308091 -2.3233821 -0.1750689 -1.4564835 -0.09524193
-0.15117994 0.8873916 -3.1239915 -0.0380923 1.0631086 -3.0789647 -0.17729975 -0.2435114
-1.4171039 -3.8441844 0.029262668 -2.510533 -1.1094223 -0.08996201 -0.07217612 -2.2462065
-0.1355389 -2.2676215 -3.240848 -2.4732926 4.0353174 -1.2886394 -3.7201006 -0.1020661
-0.13016705 -2.7497637 -1.7226491 -1.6030616 -0.18683776 -0.2949594 -0.102989346 3.275352
-1.9322826 -1.5061508 0.04216664 -0.09620205 -0.07884346 0.98782724 -0.32369864 -0.092680566
-1.901145 -3.9948196 -0.1909678 -1.7196888 -0.20483571 -0.27723134 0.054389402 -1.0382899
0.121269286 -2.740174 -1.7311175 -2.0326238 -2.187832 0.109767795 2.5522308 -0.32572725
-2.1457982 -1.2467798 -0.12613343 -0.08220252 -3.434955 -0.09807809 -0.39733195 -0.103474736
-1.4251578 -2.6617076 -2.34738 -3.4730568 -0.12855418 -0.94419 -2.5217447 0.65120804
-1.2134222 -1.8809457 -3.8836684 1.5190284 -0.14438088 -2.879419 -0.35436392 -4.675114
-0.31533468 -0.08753689 -1.7709237 -2.444864 -4.8504834 -0.27728224 -2.734871 -0.12072435
-0.13694346 -0.7638541 -0.05977174 -0.8505275 -0.20117952 -1.9006141 -0.083161816 1.6100013
-5.5327244 -0.11331651 -0.35809624 -3.7746775 -0.4332065 -3.6392846 2.8794081 -0.10419912
0.13546365 -2.1143928 2.8931656 -1.4064096 0.056095555 -3.5266702 -3.737056 -3.2640018
-1.7662224 -1.987401 -2.1873517 -2.0044339 -0.026530445 -0.2860796 -0.45932737 -3.2652953
1.2528688 2.3875456 -3.136686 -0.3094373 1.73707 -0.06874379 -0.13029969 0.28189728
-1.6223005 2.8935454 -1.4442896 -0.77992225 -0.0758001 -0.4373686 -0.12332161 -2.4703088
-0.1521759 -1.7669528 -2.5381408 -2.4871464 -2.7306101 2.8120606 -4.330287 -3.6066995
-3.181306 -0.25365233 -2.4948542 -3.6250975 -3.2700758 -3.4199164 -1.4538394 -0.12371165
-0.8255713 2.2749217 1.1043079 -0.078507185 0.27363512 -0.114913024 -2.742984 4.6708503

sequential/dense_2/MatMul/ReadVariableOp/transpose f4 [32, 400]
00000000: 0917 dfbc 3b8f 78bb b5c9 70be 7b6c af3a
00000010: 37cd 95bc 9f97 e4bd 32f0 67bd b5fa d2bc
00000020: 2213 12be 045a a6bd d4ef 6f3d d8f6 bcba
00000030: 831e d8bd fec4 6abc 6da2 273d 9d93 173d
00000040: bbdd 2abc 1c7c 6e3a fead 9f3d 96b7 2ebd
00000050: 4949 bbbc 307e 71bd 5dba 50bd 0fbc b33d
00000060: ab19 2cbe 7482 06bd 7bc7 9abd 6121 aebd
00000070: adfd b13b 9159 033e 8ac8 993d 5844 f5bd
00000080: 7ddc b9bc 19d4 ad3d 8706 0cbe 53ef 43bd
00000090: 5dcd a1bd e9c3 963c 2677 2abc 3810 6bbd
000000a0: fd6a cbbd 89f9 9bbb 0503 0b3d 6d7e 973d
000000b0: 7456 bf3d be32 ec3d 7bc6 48bd 4cbc 423d
000000c0: 5a83 01be 787a 8d3c 71fd b53b 4003 bbbd
000000d0: babb 3fbe 9b61 e1bd 313d dbbd 4712 bbbd
000000e0: b1dc 963d 7477 8abd 4ee8 eabd 5a54 f9bd
000000f0: 184a 6fbe c084 3abe 6b96 8d3c 89bb 14be
00000100: e9fb 03be 843a 4ebd de96 b5bd 23d0 713d
00000110: 8c37 8e3d a59e 293d 59ed 9cbd 07f5 06bd
00000120: 8ff0 0fbc 9399 973c 311c bcbd ce63 23be
00000130: a00c 1ebd 63c8 a23c 9db8 f1bd b82d b53d
00000140: 8efd bbbd bff1 35bc e335 32bd a188 403d
00000150: 68d2 22be c89e f43c 9f98 413e ee85 36bd
00000160: 7c4b 473d e268 9ebc 8b58 c83d af11 90bd
00000170: 1b7c e23c 5ded 2f3d 52b1 423e 832a 803c
00000180: c1e4 de3d 1859 493d 8757 533d ea0b 3dbd
00000190: 82f8 abbd 4439 2fbe 30c6 a73c cf22 36bc
000001a0: 3f92 28be f812 8cbd 895c 08bc 6197 c0bd
000001b0: 8a3a 12bd e3ae 2c3d 6b8e 04be 4855 193d
000001c0: cd13 afbd bcbc 3abd f8f4 9fbb 6910 323b
000001d0: ed01 2bbd 0839 92bd 0d72 a6bc 93df d23d
000001e0: 46c0 7abd 4a52 5cbd 9aef 61bb 7742 d1bc
000001f0: 7a86 423c 3bad a3bd 5647 3ebb f758 89bd
00000200: 12cb 13bd 64d2 cebd 8dc0 c03d 5c35 813d
00000210: 6179 583c 3844 e5bd 0acd 41bd 07f0 33bd
00000220: d10f 39be 76ce 3ebd 3d1f 753c af03 b1bd
00000230: 6734 3c3c 674b d9bd 7f45 603b b343 0fbd
00000240: 1908 9d3b 3a1f a0bd dc62 16be c35d 3abd
00000250: aec9 9cbd 84ea 8a3d ca81 463c ac69 8f3d
00000260: 5ce5 bbbd 42dd 0ebe e4e1 92bd 47bd 073c
00000270: b2d1 1bbe 137e 3dbd 0803 3abd 7da4 abbd
00000280: 53d1 6abd 0bf6 1ebe f48b 9c3c d299 edbc
00000290: 6712 6abd eb4b 123d 94df c03d 54c2 e03d
000002a0: 1bda 6dbd e105 4b3d b28a 5cbd 7874 f0bc
000002b0: bef0 8ebd b27b 0bbd 1ebd c03d 5b15 823d
000002c0: 77eb 433d edbb f83c f67b ebbd bc25 bf3a
000002d0: 749f d3bd 3e7e 2ebd f7b1 debd fcff debd
000002e0: 47cd c23d 226e 633c b042 9f3c c5d0 33be
000002f0: 3864 e23d ae17 53bd b864 83bd 6265 d83c
00000300: 1bec 12bd bc72 033c 06f2 093d b0b7 4a3b
00000310: 8d9f 903d 6673 92bd b0d4 b23d c3a2 b1bd
00000320: 1441 3dbe c78e 063d 7ce7 e8bd 0724 a6bd
00000330: 1637 ebbd 299f a83d 1551 c1bd 6ddc 95bd
00000340: 3c7e debd dd48 f0bd ca9e e23b a192 95bd
00000350: 0463 4dbe 8358 87bd b621 dcbc 00b7 643d
00000360: 7e92 18be 0e01 d1bb e86c 6cbe 97b1 0fbe
00000370: cd7a 773d da93 273d 1e4c 9a3c 6a43 dc3c
00000380: 270a 393c 670c 9abd 1c98 b43c 2e75 313c
00000390: b16c 74bd 391b 2a3d d4d7 963c 4a45 49bd
000003a0: 747e b4bd f89e 03be 9556 753d 31de ee3d
000003b0: 2011 7a3c 848a e93b 1727 21be 72d3 3a3d
000003c0: df48 5a3d aca3 313b eeb9 58bd d460 8bbd
000003d0: afb7 52bc 35f7 1ebe 741b 2c3d b709 ae3d
000003e0: 9cee f03c 4fdc 003e b482 babd 7b66 e43d
000003f0: 9581 f93c f3d2 163c 176c 53bd 7829 d5bd
-0.027232664 -0.003792717 -0.23514445 0.001338377 -0.01828633 -0.11161732 -0.056625552 -0.025754312
-0.14265111 -0.08122638 0.058578327 -0.0014416827 -0.10552695 -0.014329193 0.040926386 0.03700601
-0.010428841 0.0009097473 0.07796858 -0.04265555 -0.022862094 -0.058958232 -0.05095898 0.08776104
-0.16806667 -0.032839254 -0.07557579 -0.0850246 0.005431852 0.12827136 0.07508953 -0.11975926
-0.022688145 0.0848772 -0.13674365 -0.04783566 -0.07900498 0.018403964 -0.010404384 -0.057388514
-0.09932516 -0.0047599715 0.033938427 0.07397161 0.093426615 0.11533116 -0.04901741 0.047542855
-0.12647763 0.017270312 0.005553894 -0.09131479 -0.18723956 -0.11004945 -0.10705031 -0.091343455
0.07366312 -0.06761065 -0.1147009 -0.12174292 -0.23368108 -0.18214703 0.017283639 -0.14524664
-0.12889065 -0.050348774 -0.08866666 0.059036385 0.069441885 0.04141106 -0.07662458 -0.03294852
-0.008785381 0.018505847 -0.091850646 -0.15956041 -0.03858626 0.019870942 -0.1180279 0.08846611
-0.09179221 -0.011105 -0.04350842 0.0470053 -0.15900576 0.029860869 0.18905877 -0.04456132
0.048655972 -0.019337121 0.09782513 -0.07034623 0.027647069 0.042950977 0.19012955 0.015645271
0.10883475 0.049157232 0.051597144 -0.04615394 -0.083970085 -0.17111689 0.020480245 -0.011116697
-0.16462038 -0.068395555 -0.008322843 -0.09403873 -0.03570036 0.042158972 -0.12944953 0.037434846
-0.085486986 -0.045590147 -0.0048814975 0.0027170426 -0.041749883 -0.07139784 -0.020318056 0.1029655
-0.061218522 -0.053789414 -0.003447509 -0.025544388 0.011872882 -0.079920255 -0.0029034219 -0.06706422
-0.036082335 -0.100987226 0.09411726 0.063090056 0.013212533 -0.11194652 -0.04731468 -0.04393008
-0.1807244 -0.046583615 0.014961061 -0.08643281 0.011487103 -0.10610085 0.003422111 -0.034976672
0.004792225 -0.07818456 -0.1468615 -0.045499574 -0.07655655 0.067830116 0.012115905 0.07002577
-0.09174606 -0.1395159 -0.071719915 0.008284873 -0.15216711 -0.046262812 -0.045413047 -0.08380983
-0.057328533 -0.15523545 0.019109704 -0.029004011 -0.057146456 0.035716932 0.09417644 0.10974565
-0.05806933 0.049566153 -0.053843208 -0.029352412 -0.06979512 -0.034053512 0.09411071 0.063517295
0.04783198 0.030363047 -0.11498253 0.0014583389 -0.10333148 -0.042600863 -0.10873788 -0.10888669
0.0951181 0.013881238 0.019440979 -0.17560108 0.110542715 -0.051536255 -0.06415695 0.02641553
-0.0358697 0.00802296 0.033678077 0.003093224 0.07061682 -0.07150917 0.08731973 -0.086736225
-0.18481857 0.032851007 -0.11372277 -0.081123404 -0.11485116 0.082334824 -0.09439293 -0.073174335
-0.10863921 -0.117326476 0.006915902 -0.07303358 -0.20057303 -0.06608679 -0.026871543 0.055838585
-0.14899632 -0.0063782996 -0.2308842 -0.14032589 0.060419846 0.040912487 0.018835124 0.026887614
0.011293924 -0.07521897 0.022045188 0.0108311605 -0.05967397 0.041529868 0.018413462 -0.049138345
-0.088131815 -0.1285361 0.059897024 0.116634734 0.015262872 0.007127108 -0.15737568 0.045611806
0.05329215 0.0027105613 -0.05291169 -0.06805578 -0.012861176 -0.1552399 0.04201837 0.08497947
0.029410653 0.12584041 -0.09106961 0.11152359 0.030457297 0.009205568 -0.051616754 -0.104083

sequential/dense_2/MatMul_bias f4 [32]
00000000: 651f b1bd c213 27bd b2ac 513f 4190 3f3e
00000010: f5ff 103f ed23 7ebd 8fac 81bd f6fa 20bd
00000020: 5408 8c3e b743 97bd 0df8 bebd 4a89 78bd
00000030: 8d28 51bd 8c51 b8bd 3c53 eabd eacd 22c0
00000040: 64a0 59bd 6089 f640 f794 d2bd e430 2140
00000050: 8a13 fcbd 93a0 3940 cafc f1bf aea1 b9bd
00000060: f06b 87bd da2e 57bd fa3c 503d 1861 4140
00000070: 6403 b3bd c67d a63f a114 85be 454d 2dc0
-0.08648566 -0.040790327 0.8190414 0.18707372 0.5664056 -0.06204598 -0.06331741 -0.039301835
0.27350104 -0.073859625 -0.09324656 -0.060677804 -0.051064063 -0.08999929 -0.11441657 -2.543818
-0.053131476 7.7042694 -0.10282319 2.518609 -0.12308414 2.9004257 -1.890527 -0.09064041
-0.06612384 -0.052534916 0.0508394 3.0215511 -0.08740881 1.3007133 -0.259923 -2.7078412

sequential/dense_3/MatMul/ReadVariableOp/transpose f4 [32, 32]
00000000: 6ca6 81be 41c5 da3d 44cf afbd eb5b 6dbe
00000010: b26b 9abc 1a12 0a3d 638a 6fbe c3f6 b6bd
00000020: 21a6 afbd 0f73 8ebe c726 f13d 98e3 51bd
00000030: 26de 003e 8f9c 19be 1aeb 9ebe 9389 71be
00000040: 8b12 d1bd 9f7d 8a3e 260c 77ba 93a3 dc3b
00000050: 390e 0cbd 97ab cebb 7a77 abbf 865b 17be
00000060: 96c7 273e c2b5 3b3e b563 c8bd d0ca 4abf
00000070: b320 00bd a5f3 08c0 7033 b3be fa47 993e
00000080: 87ab bbbd 3a8b 793e 450d 003c e98f 0ec0
00000090: 987e f7bd 2c16 6fbe bc5e c3bd 9f5c 33be
000000a0: 1041 a0bd 9599 9ebe 2537 85be ed02 153d
000000b0: 29f2 8abc f696 8dbe ef92 86be 1975 85be
000000c0: e256 173e 959a b9be 310f f33d ed6b 42bf
000000d0: ffb5 8f3e b18d 9bbe a7da 83bf ed05 27be
000000e0: a4ca 26be 0767 f83c 066e 1cbe b775 8bbf
000000f0: ce2b 0cbe 99ca 43bf 9c04 4cbe afe7 9abd
00000100: abf8 9bbd d104 febc 3398 5f3d b40e 54be
00000110: ab03 72be 906e 68be b899 443e 22f2 963e
00000120: 4a8c 463d 933b 6bbe dd92 85bd 9749 25be
00000130: 2b41 ea3d a4ad b1bb ee88 afbe a406 f5bc
00000140: d9e3 3b3e 3774 edbb 251d 7abe 0227 6ebd
00000150: fafb 903e 45c7 4fbc 8b3c 74bd 7f91 aa3c
00000160: c898 323e 2d44 82be 99c1 083d 96d0 78bd
00000170: d4e7 6cbe 352c 22be 35de f13d 6ba2 84be
00000180: 5d0d 52bd 8692 1e3e 8f55 2dbe 0587 99be
00000190: 4672 02be 047d 1f3d e4f4 1a3b 74f7 2ebe
000001a0: a44f 833d 64c6 e73d 6654 adbd 0cbe 80be
000001b0: a8e8 343e 10c4 40be b09f 80be b623 43bc
000001c0: ac50 923d d67e 45be 584f 9bbd c484 00bd
000001d0: dcb5 033e 8c68 10be 3158 05bf 6147 743e
000001e0: e972 c8bd 5e4a 603e 051c b53d dcd4 ecbe
000001f0: 101e 4abd caa3 50be 820c 0c3e db6d f1bc
00000200: 281c 3abe bd47 063e fd7d 8ebe 5dc2 b9be
00000210: f4cd 4e3c 0181 92bc 0ff0 5dbe 7455 a03d
00000220: 9d0c fbbe c497 a4bd 4c04 79bd 65e8 7f3e
00000230: 3cb9 733d 0962 803e 3b14 afbe 4c66 7ebf
00000240: 04c0 5bbe 92e9 6cbc 6c2e 963d 1cde 09be
00000250: 90f2 45be 289e c4be 051c 51be cf40 c4bb
00000260: cb48 1e3e 8f96 b43c a76d a439 3f8b adbd
00000270: 8a71 a93d e82b 12bf 9e5c 2bbe c08f acbf
00000280: d383 98be fe26 503e 4500 88be c296 723d
00000290: c3be 03be c2d8 2d3d e360 4ebe 3c0d 443e
000002a0: 1c39 1c3e 3b2f a8be f3f4 50be 0e7a b93d
000002b0: 0d7d b6be add6 483e 41ce 9f3d e84c 93be
000002c0: c32d 823e e3aa ba3c cae2 1b3e badf 43bd
000002d0: 56f6 8dbd 06d0 4abd b71a f5be 3168 263e
000002e0: c0de 22be 6ddc 8d3d cbbb 103e db26 903e
000002f0: 0ab0 4fbd 661c 76be c7f5 64be ca0e a6bc
00000300: 3472 09be b762 3cbe 17a2 813d cda3 f6bf
00000310: 1f8b 60bc 39a3 d2bd cdf5 6c3c 853c 5bbe
00000320: 052e 26be 5efe 9abe 4450 5dbe 03fa 823e
00000330: 5a95 a0be 65d6 093e f405 acbc 2a91 2abe
00000340: 6339 d4bc f323 0bbc 8dd4 acbc 40fe 36bf
00000350: 5b2b 993e d115 91bd db80 17bf 9a30 28bd
00000360: afa6 003e 93ab 94bd a3f7 85bd b8ce 80bd
00000370: 441b c4bd 6924 79be e084 21bc ade2 c7be
00000380: f831 3c3e 0b86 703e 0a6f 5cbe b0f7 a6be
00000390: 98ee 8ebe 3a32 f03d 468a 493e d53c 4cbe
000003a0: 06f4 45be 4bb3 3a3e 9461 1d3e 598b 88be
000003b0: b433 b03d 1b27 433e e0ae 9dbd a907 9fbe
000003c0: b6cf 8cbe f107 e8ba dff7 dd3b e6ac 1ebf
000003d0: bb60 5c3e 4a37 e9bd 0b9e a2be 17d4 d2be
000003e0: 91e3 85bc 4a51 8b3d 3a87 9abe 1996 93bd
000003f0: 28ab 0dbc eb96 2dbe f81a 01be 4ceb 05bc
-0.25322282 0.106821544 -0.08584455 -0.23179595 -0.018850181 0.03370867 -0.23392634 -0.08933785
-0.085766084 -0.27822158 0.11774974 -0.05124244 0.12584743 -0.15001129 -0.31038743 -0.23587637
-0.10208615 0.27048966 -0.00094241125 0.0067333668 -0.03419325 -0.006307076 -1.3395836 -0.14781007
0.1638473 0.18331054 -0.097846426 -0.7921572 -0.031281184 -2.139871 -0.3500018 0.29937726
-0.091635756 0.24369517 0.007815664 -2.2275336 -0.12084693 -0.23348302 -0.095395535 -0.17515801
-0.0782491 -0.3097655 -0.26018634 0.036379743 -0.016961174 -0.27654237 -0.26283976 -0.260659
0.14779237 -0.3625075 0.11868132 -0.7594593 0.2806854 -0.3038154 -1.0301102 -0.16310854
-0.16288239 0.030322565 -0.15276346 -1.0895299 -0.13688585 -0.76481014 -0.19923633 -0.075637214
-0.07615789 -0.031008156 0.054588508 -0.20708734 -0.23634212 -0.22698426 0.19199264 0.29481608
0.048473634 -0.22971945 -0.065221526 -0.16141354 0.11438211 -0.005422311 -0.34284157 -0.029910393
0.18348636 -0.00724652 -0.2442518 -0.05814267 0.28317243 -0.012681787 -0.05962805 0.020821331
0.17441094 -0.2544264 0.033387754 -0.060745798 -0.2313531 -0.15837176 0.11809961 -0.25905165
-0.051282275 0.15485582 -0.1692717 -0.29985824 -0.12738904 0.038937584 0.0023644501 -0.17086583
0.064116746 0.11317137 -0.08463363 -0.25144994 0.17666876 -0.18824792 -0.25121832 -0.01191037
0.07144293 -0.19286665 -0.07583493 -0.031376615 0.12862343 -0.14102381 -0.52087694 0.23855354
-0.097875424 0.21903369 0.08843235 -0.4625615 -0.049345076 -0.2037498 0.13676646 -0.029471328
-0.18174803 0.13113303 -0.27830496 -0.362811 0.012622345 -0.01788378 -0.21673606 0.07828799
-0.4903306 -0.080367595 -0.060795113 0.24990995 0.059502825 0.25074795 -0.34195122 -0.9937484
-0.21459967 -0.014459984 0.07333073 -0.13463634 -0.19330812 -0.38401914 -0.20420845 -0.005989171
0.15457456 0.022044448 0.00031362215 -0.08473825 0.08273609 -0.57098246 -0.1673455 -1.3481369
-0.29788074 0.20327374 -0.26562706 0.059225805 -0.12865739 0.042443044 -0.20154147 0.19145674
0.1525616 -0.32848534 -0.2040594 0.09056483 -0.3564228 0.19613142 0.07803012 -0.28769612
0.25425538 0.022786563 0.15223232 -0.047820784 -0.069317505 -0.049514793 -0.47871944 0.16250683
-0.15905285 0.069268085 0.14134137 0.28154644 -0.050704993 -0.2403427 -0.22359382 -0.020270724
-0.13422471 -0.18397032 0.06329744 -1.9268738 -0.013705044 -0.102850385 0.0144629 -0.21409805
-0.16228493 -0.30272192 -0.2161265 0.2558137 -0.31363946 0.13460691 -0.020998932 -0.16656938
-0.02590627 -0.008492458 -0.021097446 -0.71481705 0.2991589 -0.07084239 -0.5918099 -0.041061975
0.12563585 -0.07259288 -0.065413736 -0.062894285 -0.09575513 -0.24330296 -0.00985834 -0.39040127
0.18378437 0.23488633 -0.21526733 -0.32610846 -0.27916408 0.1172833 0.19681653 -0.1994508
-0.19331369 0.18232457 0.15369254 -0.26668814 0.086036116 0.19057886 -0.076993704 -0.31060532
-0.2750222 -0.0017702562 0.0067739333 -0.6198257 0.21521275 -0.11387499 -0.31761202 -0.41177437
-0.016343864 0.06802614 -0.30181295 -0.07206363 -0.008646764 -0.16952102 -0.12607944 -0.008173775

sequential/dense_3/MatMul_bias f4 [32]
00000000: ecca 8a3e 62a1 5ab9 4615 eebe b3f6 77bf
00000010: cda8 ecbf 54e5 a63f a551 52c0 544d 10bf
00000020: 3e5a a0c1 5ea3 c3be 7da3 01c0 4b47 03bf
00000030: e720 1bc0 100b 01bd ccd8 08be 52dc 13be
00000040: 012c f1be 44c2 a0bf 294a 093f 49b6 573e
00000050: bcf4 81be 55ce b1be 9111 babe 08ff 58bf
00000060: e0f1 3abf 1dbe 1abe 7403 79c1 5d13 fbbe
00000070: c9dd 18c1 dd25 cd3f 4bcf 6c3e a094 36bf
0.27107942 -0.0002085022 -0.46500605 -0.9686081 -1.8489014 1.3038735 -3.2862332 -0.56367993
-20.044064 -0.38210577 -2.0256035 -0.5128066 -2.4238832 -0.03150469 -0.13363951 -0.14439514
-0.47103885 -1.2559285 0.53628784 0.2106563 -0.2538203 -0.3472773 -0.36341527 -0.84764147
-0.7302532 -0.15111585 -15.563343 -0.4903821 -9.554147 1.602718 0.23125951 -0.71320534

sequential/dense_4/MatMul/ReadVariableOp/transpose f4 [32, 32]
00000000: 2223 46be 4ddd d2be 8f8e f33d 3ad9 26be
00000010: bd0b 3cbf 10bb bcbc de14 c63e db9e b2be
00000020: 6331 b33b 45a9 02bf 51da 46bd 1f1e 833d
00000030: fb2a 953d 4703 7fbe df46 22be 4e9c 57be
00000040: e201 61be c69e 003f c271 10be cf75 01bf
00000050: 7353 203d 6dad 94be c3ba 13bc 8c8b 813d
00000060: f94d 12be b32f be3d ef7a 94be a2f0 01be
00000070: bae1 7cbe c538 bdbe 00fa 96be a0b9 77be
00000080: 5382 3d3e af31 dbbe 7ee5 193d a43a 213e
00000090: fdbe 91be c0bc b7be d9af c73b 4a90 883d
000000a0: 29fd 62bd cf8f ed3d b600 34bf 125d 8d3e
000000b0: cb36 a0bd 3ff0 50be 35bb abbd 2f02 10be
000000c0: 2a60 e7bd ea3f 35be cc5c 21bc 2fec 14bf
000000d0: 336f b1bd 6cc3 6d3c ee1a 22be 8a2d 8b3e
000000e0: 8d08 77bd 7784 05bd 1b9b dbbe 8629 ed3d
000000f0: ba88 81be 3429 22bd 1cd4 c93e 6c19 fe3d
00000100: 7cc9 d4bd 62a9 43be dd57 17be a9d6 a4be
00000110: c504 38bd 92d3 88be 78e1 b7bd 30ee 96bc
00000120: 94de a7bd fcc8 d5bc 5556 8fbe 52c8 4fbc
00000130: 0917 afbe 9713 64bd da87 b4be b7e0 0b3e
00000140: 36ca 39be 1c15 bfbc d607 18be ed5a e3ba
00000150: f811 09be 7e35 5a3e 7b5f 54be 5b9a 26bd
00000160: 9c1a e93b aed7 fdbb a653 5bbd ad5e f93c
00000170: c436 75bd 115f 6dbe b5d7 2ebc aea6 3dbe
00000180: b157 f8bc 7129 febe 0a99 9bbe 2e6f 0fbe
00000190: ec99 a5be 9346 b7be a56e 75be 08e3 813d
000001a0: 84d0 cabc be33 1abf 6b47 60bd 9d1d 0bbf
000001b0: b363 cd3d f6df 06bf aa66 acbd a418 4ebe
000001c0: 61dc 13be f15a a7bc 6ead 6fbe a3ac f0bd
000001d0: c005 c3bd 32dc d5be 62f0 303e 85ca 2e3e
000001e0: ae75 953d 3464 d03e 95ac 9ebd fbc9 363e
000001f0: 04b7 09be ce85 a0be 76c4 8ebe 40f9 3c3e
00000200: 0a84 e8be d0eb 57bd 4348 f9bd 5dcf c1be
00000210: b3a7 b5be 6430 3abf 5042 abbd ec21 34bc
00000220: 977c b2bd a6c7 ebbd 54cd 74bc 98ad 42be
00000230: d024 af3c e1b7 2cbf 0334 2fbe 1c79 febc
00000240: 14d5 3dbe fc7e cbbe 55a5 dd3c cb29 db3c
00000250: b84a 443e 173b 223c 1fd5 32be b9b4 413d
00000260: bfd1 2c3e bb9d 9ebe f1ea a5bd fbab 283d
00000270: 1e75 62be d762 12bf bdf3 0cbe d2dd 56be
00000280: c515 2dbc c0a9 47be 8884 c93c c2d4 e33d
00000290: cb1b 483c eca4 093d e72f 5cbb 4297 d43c
000002a0: 3cc4 dfbd f89f 553d 2498 7e3d 1c90 b83c
000002b0: 2814 013e 9c71 293c 5b64 29be 422c 9d3d
000002c0: 1bea 233b 55a5 833c cc50 4b3d 01b6 05bd
000002d0: 86ba cc3c 63ac fa3d cdcc 743d f437 853e
000002e0: d42a 3f3e 5e2e ab3c b1cf b13d cf2e 44be
000002f0: 5ac5 96be 1466 1bbd 1464 0f3e 4516 08be
00000300: d042 87be d867 d0be 0cb2 b7be fa2f d1bd
00000310: 7e0c b535 3635 5dbe af0e 823e 27ec 4c3e
00000320: c002 62be 856a debd 0b07 eebe 2604 8cbe
00000330: 021c b6be 78e1 a4bd 969b 80bc 6ece 933e
00000340: 2054 aabe a11e 29bd 4a4c 76be 0348 93bd
00000350: 5c45 173d 4384 4cbd cbe0 a43d b920 38be
00000360: c36c 1dbe 3838 34be 8c2d bdbd ab8b e1bd
00000370: 8a8a ffbd cba1 41be 86da 86be 9f46 44be
00000380: d98c 3bbe 2e29 cabd 9769 6dbe 289f c63d
00000390: def8 8bbe e5e3 82bf a209 103d 81c7 883c
000003a0: 4239 babd a86a 9fbe eaba 1bbe 6c14 843d
000003b0: d5db 0c3e aeb5 b1be 71f1 20be 0a89 ce3d
000003c0: d927 aabe 9d5a 763b 9e10 18bf 52f8 91be
000003d0: 1f37 703d 971c 66be 2387 a1be 7563 373e
000003e0: 3196 093d 7271 3cbe 3402 73be 9e1b cbbb
000003f0: 9fe0 2dbd 357a cdbe 528d c73d a9a3 c6be
-0.1934934 -0.41184464 0.11892425 -0.16293803 -0.7345541 -0.023038417 0.38687795 -0.34886822
0.005468534 -0.51039535 -0.048548046 0.064022295 0.072835885 -0.24903594 -0.15847348 -0.2105572
-0.21973374 0.5024227 -0.14105895 -0.50570387 0.039142083 -0.29038563 -0.009016695 0.063254446
-0.14287557 0.09286442 -0.2900004 -0.1268945 -0.24695483 -0.36957374 -0.2948761 -0.24191904
0.18506746 -0.42811343 0.037572376 0.15745026 -0.28466025 -0.35886192 0.0060939607 0.06668146
-0.055417214 0.11599695 -0.70313585 0.2761007 -0.07822951 -0.20404147 -0.08385316 -0.14063333
-0.11297639 -0.17700163 -0.009848785 -0.5817289 -0.08663788 0.014511924 -0.15830585 0.2718318
-0.06031089 -0.03259703 -0.42891774 0.115801856 -0.25299627 -0.039590076 0.3941964 0.124071926
-0.103899926 -0.19107583 -0.14779611 -0.32195023 -0.044926424 -0.26723915 -0.089785516 -0.018424124
-0.0819675 -0.026096813 -0.27995554 -0.012682037 -0.34197262 -0.055682745 -0.35259897 0.1365994
-0.18143544 -0.023325495 -0.14846739 -0.0017345824 -0.13385761 0.21309468 -0.20739548 -0.04067455
0.007113768 -0.0077466583 -0.05354657 0.030440653 -0.05986668 -0.23180796 -0.010671546 -0.18520615
-0.030315252 -0.49640992 -0.30390197 -0.14007255 -0.32343996 -0.3579603 -0.23967989 0.06342131
-0.024757631 -0.602352 -0.05475561 -0.5434206 0.10028782 -0.5268549 -0.08418019 -0.20126587
-0.14439537 -0.020429106 -0.23406002 -0.11751678 -0.09522581 -0.41769558 0.17279199 0.17069443
0.07297836 0.4070145 -0.07747761 0.17850487 -0.13448721 -0.31352085 -0.27884263 0.18454456
-0.45413238 -0.052715123 -0.12171986 -0.37853518 -0.35479507 -0.7273009 -0.083622575 -0.010994416
-0.0871517 -0.11512689 -0.014941532 -0.19011533 0.021379858 -0.67468077 -0.17109685 -0.031063609
-0.18538314 -0.3974532 0.027056376 0.026753327 0.19169128 0.009901783 -0.17464112 0.04729149
0.16876887 -0.30979714 -0.08101452 0.04117964 -0.22114989 -0.5718207 -0.13764854 -0.20983055
-0.010564272 -0.19498348 0.024599329 0.11124565 0.012213658 0.033604547 -0.0033597888 0.025951032
-0.109261006 0.05215451 0.06215681 0.022529654 0.12605345 0.010342028 -0.16542189 0.07674457
0.0025011364 0.016070047 0.0496376 -0.032644276 0.024991285 0.122399114 0.059765626 0.2601925
0.18668681 0.020896133 0.08682192 -0.19158481 -0.29447442 -0.037939146 0.1400302 -0.13289745
-0.2641816 -0.40704226 -0.35878026 -0.10214229 1.3489187e-06 -0.2160233 0.25401828 0.2001196
-0.22071362 -0.10860161 -0.46489748 -0.27346915 -0.35568243 -0.08050817 -0.01569919 0.2886843
-0.33267307 -0.041288976 -0.2405254 -0.071914695 0.03693138 -0.049930822 0.08050688 -0.17981233
-0.1537352 -0.17599571 -0.09237203 -0.11012968 -0.12477596 -0.18909375 -0.26338595 -0.19167565
-0.18315448 -0.09871136 -0.2318481 0.096983254 -0.27338308 -1.0225798 0.035165437 0.016696693
-0.09092952 -0.3113606 -0.15208021 0.06449208 0.13755734 -0.34708923 -0.15717103 0.10084732
-0.33233526 0.003759063 -0.59400356 -0.28509766 0.058646318 -0.22471844 -0.31548414 0.17909034
0.0335905 -0.18402651 -0.23731309 -0.0061983606 -0.042450543 -0.401323 0.097437516 -0.38796738

sequential/dense_4/MatMul_bias f4 [32]
00000000: 32ef 233f 7aec 853f b6de aabe e237 9dbf
00000010: 2efa ef3e 5cc2 f3be 5c19 10bf 17c4 3d3f
00000020: 12fb 7abf 6047 41bf 46b4 62bf 6cbf 0bbe
00000030: 18c5 f4be a4a2 3e3f 0ff8 02bf f911 81be
00000040: 776b 27bf 799f 60bf 6c8a 5440 1fcb 03be
00000050: 54f6 26bf db7a 06bf fc8b 41bf 2b27 e2be
00000060: 89a7 1cbf ad8b f9be b0be 003f cfbf 9ebd
00000070: 9ca6 75be c0da d1bb 7791 03bf 5155 4bbf
0.6403686 1.0462792 -0.3337304 -1.2282679 0.4687056 -0.47609222 -0.56288695 0.74127334
-0.9803935 -0.75499535 -0.88556325 -0.1364724 -0.4780662 0.7446692 -0.5115976 -0.25209025
-0.65398353 -0.87743336 3.3209486 -0.12870453 -0.65219617 -0.5253121 -0.75604224 -0.44170508
-0.6119314 -0.48739377 0.50290966 -0.07751428 -0.23989338 -0.006404251 -0.51393837 -0.7942706

sequential/dense_5/MatMul/ReadVariableOp/transpose f4 [32, 32]
00000000: 85f1 56be 284e 44be 688c 403c ea79 48be
00000010: 9a50 0fbd 1258 b3be 1537 97be 6fe0 05bd
00000020: 5e3c 9abe b0f8 87be bbdc c9bc af78 29bf
00000030: 2258 6bbc 29f8 f7bc aabe c1bd ac6a 3abe
00000040: 5b48 62be 1abd 0abb b3c8 b7be 75d7 003e
00000050: 9766 893e b1a3 f2bd b513 20bd dd68 68be
00000060: 7d2f 9dbd f486 e23d 2d6f cfbe be6f 27bd
00000070: 132d 2c3d 524f f6be a5a6 07bd e8c3 ec3d
00000080: 7929 9dbd 7a22 90be 8ee1 28be 930e 62be
00000090: 1709 433e 6f1e 06bf aaee 02be 401c b5bd
000000a0: 763c 3bbe 1439 9ebe bef9 d7bb 7360 b7bc
000000b0: c5b7 9dbe 4eca 6abe 23f5 4bbd dc20 0f3e
000000c0: 9be6 85be 447a 083e ea09 c3bd e213 66bd
000000d0: 5617 d33a be17 c63d 8195 cabc cbff a6be
000000e0: dc8d 1c3e 140e 653e c30c 2cbd fddf 70be
000000f0: e795 3dbe c0da 9bbe 8437 153e 1956 053e
00000100: 0515 f3be 5fa4 31bd c95c 80bd 59cf 0c3d
00000110: d052 233c ce8b fabe ed17 4b3e 5897 d3bd
00000120: 859f e3bd 8f37 28be a3b1 fabd 3a5c d9bd
00000130: 6f01 a8bd e7ed afbd aefd 87be 870c a33e
00000140: 9cdf 0e3e fb4d 09bc fde6 18be 491a 3dbe
00000150: 7b8a 28be 9c52 d0be 35f7 95be cf9f 56be
00000160: 4b7b e7be fbe7 773d ec9a 1cbe 1a5a 6ebe
00000170: 3523 d03b ac6f abbe eedf 1a3e 6dde c3bd
00000180: 916c 3bbf 1578 cdbd 55b1 6c3e 3d5c a4bd
00000190: dcca 73be 2673 acbe 4b60 00bf 6007 52bb
000001a0: 5e3c 843d 29f2 ce3c 1673 04be 2544 42be
000001b0: 46fd 5d37 ef07 b9bd 2bd6 563d 2dad 53be
000001c0: 7dfb 0cbd 26a3 77be 1506 a1be 7b13 75be
000001d0: 358e afbd 1f0f 6dbe 4eef c2bd 4adc 6cbe
000001e0: ce4c af3e f7a1 9abd 02ff 163e ce06 23bf
000001f0: 8998 c2bc 1f75 3ebe 064e d43e f0fe 95bd
00000200: c074 cabe c175 b0be f37e 713e 5b35 88bd
00000210: 4855 0dbe 3572 08bf 00ab d4be 0847 60be
00000220: 2680 ee3d 3657 aabe a0a1 473b 2de2 94be
00000230: bc26 fc3d 9d05 32bf d396 82be 8d21 e33d
00000240: d364 66bb 5cbe deba 94c3 c8be 9f6b 95be
00000250: 23e2 c53d 046a 22be e356 2abd d5a5 19bd
00000260: 251c eebe 3e4e 803d 287a acbd 5b2b ccbd
00000270: 87c5 203e 859e f2be f2ce 3cbe c882 d8bd
00000280: 0b7b 63be 7969 46be 15c1 17be 2041 60be
00000290: b178 903d 5df5 2fbf 2193 6cbc 3501 94bd
000002a0: 8433 7fbe 2c6f 4f3e 1bb9 96be d3f9 e73d
000002b0: 811e 203c 3b8a c1be 8538 41be fb81 83bd
000002c0: 20b1 a8b9 2b74 3bbe 7834 53be 8b31 8bbd
000002d0: 34ce a0bd 6984 8fbe 2998 4abb 5dde 70be
000002e0: 1346 a4be 1fec 9dbe 42db 9bbd 2cb9 243d
000002f0: e85b 2fbd 99d8 10be 5752 0c3a 843c 3bbe
00000300: 8683 28bd c639 0cbf 065e 9cbd eb4d d1be
00000310: 775a 98bc b547 b5bf 7b91 4e3d b4cd 62be
00000320: 9974 e3bd a6d3 fd3d b6b4 253e 4150 9c3b
00000330: 441c 99bd 8d63 47bf 4452 d9be f530 233e
00000340: 9bd7 afbc 7fcc a5bd 8011 21bf f2f0 c7be
00000350: 48e0 e1be fb54 78be 287c 953d fece 0dbe
00000360: bd45 f1be 0643 953c d128 76bc 93f9 5a3e
00000370: 2cb1 023e 08ec a1be 323b 87bd 5a50 cdbe
00000380: d84d 1abe d45c 82be 7c94 0b3e f722 b3be
00000390: a638 b1be e703 6bbf ee43 6d3e 9fd4 1e3b
000003a0: 6587 0b3d 588e 15be 57e4 9bbe 6f0b 07be
000003b0: a0bd 263f 847a c93d 9202 9dbe 3b05 b7bd
000003c0: 4849 2bbe 1ded 90be 7567 82bd 0b9d 25be
000003d0: 411a c53e 8e0e 233d 491f 093e a603 97bd
000003e0: c79f 203e e563 9fbe 195c b73d a66b 923e
000003f0: 3690 a4be 0fd7 65bf a1a6 92bd c9f5 3abe
-0.2099057 -0.19170439 0.011752225 -0.19577757 -0.034988977 -0.3502813 -0.29534212 -0.03268474
-0.30124182 -0.2655692 -0.024641385 -0.66199774 -0.014364274 -0.0302697 -0.094601944 -0.18204755
-0.22097914 -0.0021169842 -0.3589531 0.1258219 0.26836082 -0.11847628 -0.039081294 -0.22696252
-0.07675073 0.110608965 -0.40514508 -0.04087805 0.042035174 -0.48107392 -0.03311791 0.11560804
-0.07673926 -0.28151304 -0.16492292 -0.22075872 0.19046436 -0.5239019 -0.12786356 -0.08843279
-0.18284783 -0.30902922 -0.006591051 -0.022384858 -0.30804268 -0.22928736 -0.049794327 0.13977379
-0.261525 0.1332789 -0.09523375 -0.056171305 0.0016104977 0.09672497 -0.024729492 -0.3261703
0.1528849 0.22368652 -0.042004358 -0.23522945 -0.18514214 -0.3044033 0.14571959 0.13021125
-0.47476974 -0.043369647 -0.06267697 0.03437743 0.0099684745 -0.48934788 0.19833346 -0.10331601
-0.1111441 -0.16427444 -0.12240913 -0.10613294 -0.082033984 -0.08590298 -0.2656073 0.31845495
0.13952488 -0.008380408 -0.14931865 -0.18467058 -0.16459076 -0.40688026 -0.29290166 -0.209594
-0.45211253 0.06052397 -0.15293473 -0.23276559 0.0063518533 -0.33483636 0.15124485 -0.09563909
-0.73212534 -0.100326695 0.23114522 -0.080254056 -0.23807853 -0.336816 -0.5014693 -0.0032047853
0.064568266 0.025261955 -0.12934527 -0.18971308 1.3231596e-05 -0.09034716 0.05245034 -0.2067153
-0.034419525 -0.2418333 -0.31449953 -0.23933212 -0.08572046 -0.231503 -0.095183 -0.23130909
0.34238285 -0.075504236 0.14745715 -0.6368226 -0.023754375 -0.18599366 0.41465777 -0.07324016
-0.39542198 -0.3446484 0.23583584 -0.06650802 -0.13802063 -0.53299266 -0.41536713 -0.21902096
0.11645536 -0.33269662 0.0030461326 -0.29078808 0.123120755 -0.69539815 -0.25505695 0.11090384
-0.003515531 -0.0016993987 -0.39211714 -0.2918367 0.09662273 -0.15860754 -0.041586768 -0.037511665
-0.46505848 0.062649235 -0.08421737 -0.09969207 0.1570035 -0.47386566 -0.18438318 -0.105718195
-0.22214906 -0.19376172 -0.14819749 -0.21899843 0.0705427 -0.6873377 -0.014439375 -0.07226793
-0.24921995 0.20257252 -0.294381 0.11326947 0.009772898 -0.37800774 -0.18869217 -0.06421276
-0.00032175425 -0.18306033 -0.20625484 -0.06796559 -0.0785183 -0.28030708 -0.0030913448 -0.23522325
-0.32084712 -0.3084421 -0.076101795 0.040215656 -0.042812258 -0.14145125 0.0005352846 -0.18284804
-0.041141056 -0.54775655 -0.07635121 -0.4087976 -0.018597824 -1.4162508 0.05043171 -0.22148782
-0.111062236 0.12393884 0.16182217 0.004770309 -0.07476094 -0.7788628 -0.42445576 0.15936644
-0.021465113 -0.08095645 -0.6291733 -0.39051014 -0.44116426 -0.24251167 0.072990716 -0.13848493
-0.4712352 0.018220436 -0.01502438 0.21384268 0.12762898 -0.3162539 -0.066030875 -0.40100366
-0.15068758 -0.25461447 0.13630861 -0.34987614 -0.34613532 -0.9180283 0.23170444 0.0024235619
0.03406467 -0.14605081 -0.30447647 -0.13187955 0.65133095 0.09837821 -0.30666023 -0.089365445
-0.16727173 -0.28305903 -0.06367389 -0.16173188 0.38496593 0.039808802 0.1339084 -0.07373743
0.1568595 -0.311309 0.08953113 0.28597754 -0.32141274 -0.8978128 -0.07160688 -0.18257822

sequential/dense_5/MatMul_bias f4 [32]
00000000: 1032 b6bf 1444 02bf b3fb 8fbf 93fd 2cbe
00000010: a77a 29bf 4161 4bbf e67f e8be 3d6f 34bd
00000020: d403 b1be 5910 9cbf 4129 3dbf 1cb2 dbbe
00000030: d2ec a740 2643 78c1 f3a8 87bf 7b4e 2cbf
00000040: bd6d 0dbf fc20 b4c0 5755 16be 6df5 12bf
00000050: 636a 0c41 c20b 93bf f88c cc3f fa5c c2bf
00000060: ebbd 07bf 943c 1cbf 20c2 e8be b426 40bf
00000070: c7f6 8dbf 9fca 1ebf 7dfa a5bf e884 58bf
-1.4234028 -0.5088513 -1.1248688 -0.16893606 -0.6620278 -0.7944527 -0.4541008 -0.044051398
-0.34573233 -1.2192489 -0.73891073 -0.42909324 5.2476587 -15.516394 -1.0598434 -0.6730725
-0.5524557 -5.6290264 -0.14680992 -0.5740574 8.775973 -1.1487963 1.598052 -1.5184624
-0.53024167 -0.61029935 -0.45460606 -0.75059056 -1.1090935 -0.62027925 -1.2967068 -0.845778
