models/test.tflite (tflite, 303448 bytes, 7 tensors)

sequential/dense/MatMul/ReadVariableOp/transpose f4 [144, 222]
00000000: b45b b1bd 8b99 3fbd cbea b23d b82e bd3d
00000010: ec80 913d afb9 ffbd b90f de3d ae1c 6dbd
00000020: 728f 64bd a7aa e53d 7313 abbd 87a9 ea3c
00000030: 17a1 163e 01f5 b0bd 60d6 803d 8265 db3d
00000040: 394f 3dbc 39ce 823d c10f 0f3d c39e f8bc
00000050: 5952 683d f9d1 97bc 75ac f9bd 3a2b 21bd
00000060: ee15 2ebd 90d8 d73d 4ee3 60bc 1118 1e3c
00000070: 3d5c fa3c 095b 133c 77fe fbbd 5345 033d
00000080: eef9 173e d2b8 91bc 63ce babd be8b dcbb
00000090: d365 3aba 5325 9ebd 4678 55bd a775 413d
000000a0: 67e2 a93d 5af7 d83d d1ec 423e 3df4 e83c
000000b0: 4dc2 963c 0f41 afbd 660f 89bd 8786 01be
000000c0: 24d5 7b3d 279f aebd 8abc d13b 32a4 a8bd
000000d0: fff7 293e d1e7 583e 28c7 80bd 3909 533d
000000e0: 51d3 ba3c 1a8e 3dbc 2fe0 783d c000 e9bd
000000f0: 8edf a83d 2567 d6bc ae7e 68bc 0b41 58bd
00000100: a4c8 813d 75c1 babd 220c e23d 3668 923d
00000110: 6662 a9bd 78e3 153d 5afc 0d3e ae74 283e
00000120: 22f5 1e3d baaa f5bc 1789 1f3c b76a f43d
00000130: 7abb 45bd 9901 143e d358 04bd dd8e 563d
00000140: 1efe 84bd d122 f1bd 1de6 d33c 22f8 58bd
00000150: 54d7 043e b75f 0b3e a310 efbd 0aaa 31bc
00000160: dbea 153d d26c 13bb 417e a53d 9eb8 b13d
00000170: 7343 14bd 44c8 dc3c 578c 823d 5b8d 79bd
00000180: 9225 8a3d f4da b43d 6922 9ebd 0514 96bd
00000190: 6f0c 84bd ca91 be3d 81ea e13d 5574 1c3e
000001a0: 36c2 b3bd 215a 88bd 7c6e 003d cf35 07be
000001b0: 7554 cd3d 7f95 edbd 4a19 a93d d765 05be
000001c0: a993 153c e6b2 d83c c151 1f3d 7070 4ebd
000001d0: 368d 3bbd a0ce b63d 5e71 e2bd 4bb2 fc3d
000001e0: ae0f c73d 965f 09bd fcd4 0f3e 7163 18bd
000001f0: a862 4bbd 67b6 aabd 22b6 94bd 9e0c c63d
00000200: baf9 9cbd dd68 07bd 618a ea3c 45c6 173a
00000210: e993 f43d 492a dcbd 7fae 9bbe ba7f 263e
00000220: 6e5a 11bd 1d35 103d 8ac3 06bd 117e 063d
00000230: 0e06 bc3d 7db6 f0bb 20e9 823c 3737 da3a
00000240: 7c4c f43d eb3d ddbc 197c cbbd 2856 49bc
00000250: 637e 333b 225e 9a3d 74e4 62bb 5f77 bf3d
00000260: 4669 18be b81a 1fbe 4651 1e3e fd51 66bb
00000270: a1e3 703e 831d f0bc 4960 90bb d81c 24be
00000280: 4ca0 05be fb75 a3bc f36f c43d 70c4 89be
00000290: f845 6e3e c308 91bd 6ccd e23c 717d 88bd
000002a0: 9524 2b3d 4ba8 fe3d d0af 823d 2fee 0f3e
000002b0: b923 003e e687 abbd a877 21be 3ef7 00be
000002c0: 67f1 27bd 20ff 06be 35f8 c6bd 0976 9f3d
000002d0: a750 cc3d e242 24be 3b38 bc3d e1e0 d33d
000002e0: 5628 9f3d ee7c e1bb 361c fc3d d958 91be
000002f0: a1cc ccbd 30d7 e13c 0fa3 103e 60f0 10be
00000300: 7aab 8dbd d200 7ebc 410e c83d 4353 67be
00000310: c63b 7cbd 09d3 c33d 2923 e2bd bb57 2abe
00000320: 4282 4bbb c6ed 5abd 3fb7 18be 45f9 8a3b
00000330: f419 a4bd fdad f7bd 3411 61be d631 3ebd
00000340: be42 2bbd da68 8fbd f81a fa3c 2a19 853d
00000350: a854 913d f0d0 c83d 9427 9f3d 0876 c13d
00000360: 7266 c83d 2485 acbd 68a3 953d 58f6 d93d
00000370: 3cb2 01bd a088 4f3c e4b0 163e 673d b6bd
00000380: 1e51 823d 7e45 863c 733b 9cbc 28f7 673d
00000390: 3beb fd3c 049a d3bc 6197 4ebc c5e6 a3bd
000003a0: 1bd0 ea3d dbe2 a4bd 9100 c0bc bae9 a3bd
000003b0: 55d1 3c3e 6a19 acbd b275 b93d 82bf 693d
000003c0: be9b 0a3c dc2d fd3c 4e87 8bba 4204 bc3d
000003d0: c336 203c 68bb 7fbb 8500 9a3d ce1b 8a3d
000003e0: 311e 933d 88e0 e93d 1772 9bbd c089 963b
000003f0: 2226 ddbd 5521 c3bd 5f91 0e3e f4da 33bd
-0.08660069 -0.04677729 0.087361895 0.092374265 0.07104668 -0.12486588 0.108428426 -0.05788868
-0.055800863 0.1121419 -0.08353319 0.02864529 0.14709888 -0.08640481 0.06290889 0.107127205
-0.011554533 0.0638699 0.034927133 -0.030349141 0.056719158 -0.01853274 -0.12191097 -0.039347865
-0.042501383 0.10539353 -0.013726069 0.009649293 0.03056156 0.008993872 -0.12304395 0.032048535
0.14841434 -0.017788325 -0.091213964 -0.0067305258 -0.000711051 -0.07721963 -0.052116655 0.047231343
0.08295136 0.105940536 0.19035651 0.028436774 0.018403197 -0.08557331 -0.0669239 -0.12648974
0.061482564 -0.0852645 0.0064006494 -0.08234443 0.16598509 0.21182181 -0.06287986 0.051522467
0.022805842 -0.011569524 0.060760673 -0.11377096 0.08245765 -0.02617223 -0.014190359 -0.052796405
0.06337097 -0.0911893 0.110374704 0.07148783 -0.08270721 0.036593884 0.13865796 0.1645076
0.038807996 -0.029988635 0.009737275 0.11934417 -0.048274495 0.14453734 -0.032311272 0.05238234
-0.064937815 -0.11774219 0.025866563 -0.052971013 0.12972766 0.13610731 -0.11673095 -0.010843763
0.03660093 -0.0022495282 0.08080722 0.08677791 -0.036197137 0.026950963 0.06374424 -0.060925823
0.06745447 0.088308245 -0.07721407 -0.07328037 -0.06447684 0.09305151 0.11031056 0.15278752
-0.08777277 -0.06657816 0.031355366 -0.1320412 0.100258745 -0.1160078 0.08256777 -0.1302713
0.009129443 0.026452493 0.038896326 -0.050400198 -0.045788966 0.08926129 -0.11056779 0.12338694
0.097197875 -0.033538423 0.14046091 -0.03720421 -0.049654633 -0.08335572 -0.072613016 0.09670375
-0.07664819 -0.03305899 0.028630437 0.00057897373 0.11942274 -0.10750253 -0.30406567 0.16259661
-0.03548663 0.035206903 -0.032901324 0.03283507 0.09180842 -0.007345973 0.015980303 0.0016648535
0.11928651 -0.027007064 -0.09935779 -0.012288608 0.0027388565 0.07537486 -0.0034621032 0.0934894
-0.14883909 -0.15537536 0.15460691 -0.0035144084 0.23524334 -0.029310947 -0.0044060093 -0.16026628
-0.1304943 -0.019953718 0.09591665 -0.26907682 0.23268878 -0.07081749 0.027685843 -0.06664551
0.041782934 0.12434443 0.0638119 0.14055704 0.12513627 -0.0837553 -0.15768301 -0.12594315
-0.041001704 -0.1318326 -0.097153105 0.07786185 0.09976321 -0.16041139 0.091904126 0.103456266
0.07771365 -0.006881348 0.12310068 -0.28388098 -0.09999967 0.02756843 0.14124702 -0.14154196
-0.06917472 -0.015503125 0.09768344 -0.22590356 -0.061580442 0.09561736 -0.110418625 -0.16635029
-0.0031052982 -0.053449415 -0.14913653 0.004241141 -0.08012763 -0.120937325 -0.21979219 -0.046434246
-0.041811697 -0.07002421 0.030530438 0.0649894 0.07096225 0.09805477 0.07771221 0.09446341
0.09785165 -0.08423832 0.07306558 0.106426895 -0.03166412 0.012666851 0.14715916 -0.0889843
0.06363128 0.016390558 -0.019071316 0.05663219 0.030995956 -0.025830276 -0.012609334 -0.08003
0.11465474 -0.08051082 -0.02343777 -0.08003564 0.18439229 -0.08403285 0.09055652 0.0570674
0.008459983 0.030905657 -0.0010645182 0.091804996 0.009778681 -0.0039021615 0.0751963 0.067435846
0.07183493 0.11419779 -0.0759012 0.004594058 -0.10798289 -0.09527842 0.13922642 -0.04390998

sequential/dense/MatMul_bias f4 [144]
00000000: a3df 46bd fc4a 97bd 8a4e 84bd 37c8 7fbd
00000010: 1d4c 8ebd 564c b6bd d0f7 eb3b c1e6 c33c
00000020: 649f c1bd 1be4 acbd af86 ffbd 23d9 82bc
00000030: 121c 74bd ccb5 673d 8224 c63b d42b ebbc
00000040: ba2d 3fbd 3dbc 31bc 6a61 723c 6602 abbc
00000050: 2d99 373b b4f9 42bd 0aa7 14bd e183 a5bc
00000060: 5eb2 053d 9c8c 38bd 0879 f4bd d8d4 073d
00000070: acf7 053d 594c 463c 41e6 fabb 02e8 c1bd
00000080: 4eae e7bd 7cbf 9abd 47aa 19bd eb18 753b
00000090: aa75 b13c 115d dcbb 29ba c9ba a2e6 d7bd
000000a0: 648a f0bd 1c4e 523c ed55 1fbd 2161 edbc
000000b0: 683f 2dbe 8c96 debd fe9a b1bd 980b 23bc
000000c0: fc8e e2bd 43cc c7ba b1fe c7bd c10e 15bc
000000d0: 2f10 303b b0c0 a8bb c9f5 88bd b2e2 f0bb
000000e0: 153e d1bd 66c0 30bd 9d3a 9bbc b3a9 a7bc
000000f0: 3a21 24bd 4141 42bd 3bbc 0cbd 7d9e 05bc
00000100: 37c8 03be 06b1 86bd 7174 94bd f0a1 903c
00000110: 5cfe 05bd ff81 ad3b eebe 533d ac92 af3c
00000120: 4603 04bd 6cf8 4cbd 3e37 28bd a82c d9bd
00000130: 3c59 e0bc 476e ddbd 9b69 773c 7768 e8bc
00000140: 5417 11bd 52d1 15bd 37f9 3dbc 4f17 2bbe
00000150: 1a98 bfbb 7daa abbc 8e87 bbbb 4b0d 6cbd
00000160: 1bb7 8a3c 0624 afbd 7cac 9abc cf61 adbd
00000170: dad0 8abd 372a 8cbd cc8f c1bd d2a9 3cbd
00000180: 092e 4d3c 4ae6 5abb b339 74bd 2803 39bd
00000190: d362 09be eeb0 fc3c db4d e3bd 6025 c2bd
000001a0: 9de3 3bbd 463f c8bd 7f58 36be 43db f8bb
000001b0: d908 e8bd 94f7 0cbd 9a38 3a3d d476 0e3d
000001c0: 6868 60bd 6b2e 81bc ec78 e5bd 61df 9fbd
000001d0: 12cb 79bd 9875 eabc 41b1 223d d213 acbd
000001e0: 746f e8bd 360d 54bd 4b70 a13c 7ecb 783b
000001f0: 8937 1bbd 3bc1 d33c 28b5 dcbc e7d7 fdbd
00000200: 86f3 263d dc23 9cbd 20d3 e9b9 b08f cbbd
00000210: 9b92 0cbd 3a15 e4bc 84f5 a83a 8707 883c
00000220: d48d 393d b6dc 19bb a119 42bc 928a d53c
00000230: e72c 95ba acb8 e13b d651 94bd e93d babc
-0.04855312 -0.07387349 -0.06460293 -0.0624468 -0.06948111 -0.08901279 0.0072011724 0.023913743
-0.094542295 -0.08441945 -0.12476861 -0.01597268 -0.059597082 0.05656986 0.0060468325 -0.028707422
-0.046674468 -0.010848102 0.014793733 -0.020875167 0.0028014884 -0.047601417 -0.036292113 -0.020204486
0.032640807 -0.04505597 -0.119371474 0.033161968 0.0327069 0.012103164 -0.007656843 -0.0946808
-0.11312543 -0.07556054 -0.037515905 0.0037398885 0.021662552 -0.0067249616 -0.0015390563 -0.105420366
-0.11745146 0.012836006 -0.038900305 -0.028976979 -0.16918719 -0.10868558 -0.086721405 -0.009951495
-0.11062428 -0.001524337 -0.097653754 -0.009097756 0.0026865115 -0.0051499233 -0.06687505 -0.007351243
-0.10216919 -0.043152235 -0.018948847 -0.020466661 -0.04007075 -0.047425512 -0.034359198 -0.008155462
-0.12869345 -0.06576733 -0.07248772 0.017655343 -0.03271328 0.0052950378 0.051695757 0.021432243
-0.032229684 -0.0500416 -0.041068308 -0.10604221 -0.0273863 -0.10812049 0.015100862 -0.028370125
-0.035422638 -0.036576577 -0.011595062 -0.1670811 -0.0058469893 -0.020955319 -0.0057229465 -0.057629865
0.016933015 -0.08551793 -0.018881075 -0.08465921 -0.067781165 -0.06843989 -0.09451255 -0.04606039
0.012523183 -0.0033401423 -0.05962534 -0.045169026 -0.13416605 0.030846085 -0.11098834 -0.09479785
-0.045871366 -0.097776935 -0.17807196 -0.0075944974 -0.113298126 -0.034415796 0.045464136 0.034781292
-0.05478707 -0.015769204 -0.11204705 -0.07806278 -0.06098468 -0.028620526 0.039719824 -0.08402218
-0.11349383 -0.05177041 0.019706866 0.0037963088 -0.03789476 0.025848975 -0.02694185 -0.12394696
0.040759586 -0.07624027 -0.00044598524 -0.099395156 -0.0343195 -0.027842153 0.0012890552 0.016605152
0.045301273 -0.0023477501 -0.011846931 0.026067052 -0.001138118 0.0068884697 -0.072421715 -0.0227346

sequential/dense_1/MatMul/ReadVariableOp/transpose f4 [224, 144]
00000000: de1f ba3c aa6d ffbc da73 88bd def3 b0bd
00000010: 82ee 31bd 8f04 71bd 54d6 b1bd f60f cc3d
00000020: 7523 e2bd d00d babd ce56 893d 0271 6cbd
00000030: d8f5 b13d b0dd 7f3c 5cde c0bd 4889 683d
00000040: 9d0b e5bd 4579 e6bd 3fbf 0dbe 613c 89bd
00000050: 1560 debd 9d80 633d b985 91bd 5518 87b9
00000060: 339c 883d d945 d0bd 7474 343c addf d8bd
00000070: b501 5cbc 2298 8a3d 44dd 99bd df1e a93d
00000080: aede a5bd 94d0 83bd 3831 9abd b861 fcbd
00000090: adf3 fdbd 5c53 31bc fb2f 9bbd 50c5 943d
000000a0: d369 cf3d 38da b7bd b759 31bd 8e00 08be
000000b0: 0415 6f3d 0b5e 3bbd 1f5a 38bc f4ca bd3d
000000c0: 0b86 6b3d 57d6 c63d eed7 e2bc 0356 d0bd
000000d0: f690 c43d 3d1f febd 164c d33c 3319 3bbd
000000e0: 9eba af3d 969f d2bd 0d86 883d ebae f7bd
000000f0: 9bba a7bd e1fb 7d38 33dc 683d fb8c 27bd
00000100: cf19 983d 8af8 c93d 02f2 9ebd 73c6 16be
00000110: 65c5 eabd 23b4 e2bd 76a0 f8bd d704 fdbd
00000120: dc90 183d d060 7c3c e7ac 43bd d334 bc3d
00000130: 54c5 473d e038 68bb ed4a 86bc 5127 f73d
00000140: 4b1b 563d 3d6c fdbd 49fc 4dbd 3638 eebd
00000150: 8002 f3bd c790 a9bd 2e9a bdbc b774 c7bd
00000160: 3c7e 05be d160 da3d 77ba 03be 7c1b a2bd
00000170: 7c15 933c 217e 333d 44c5 f9bd 50b3 843d
00000180: 7e7c b1bd 0dbe f2bd 7d3f f83d 30f5 823c
00000190: 54b4 eabd 74f5 e1bd b7b2 05bc 3e15 323c
000001a0: 73ed 0dbe e608 a2bd d443 a4bd 15eb 643a
000001b0: 1422 b63d 0b36 b9bd 1731 e3bc 204c bcbc
000001c0: ea59 a93d cd54 b7bd 5607 fabc e9a7 adbd
000001d0: 5bba 573c 2056 e3bd 09fd d5bd 7ed4 85bd
000001e0: 753c 333d a949 d83d f594 96bb 10e5 763d
000001f0: 8026 5f3c 7761 d13d bd40 2d3c bc71 56bd
00000200: 5960 49bd 8e0a f2bc f539 a9bc cde3 d6bd
00000210: c506 9abc d58e f8bc 6947 e6bd 1e16 9abd
00000220: 218c a33d 4304 283d f6d9 b2bc efa7 9bbd
00000230: d29c ac3d 1be3 d0bd 62de 35bd 53df 4f3d
00000240: 663b 223d 724a 283d 046a d2bd 3555 3b3d
00000250: 320b ee3c 48f2 b0bd dcd9 d4bd b6f2 1fbc
00000260: 48bb be3d 9d08 383d cc6f 03be 7002 07be
00000270: 3c86 dabd d4d3 ae3d d633 613d f9d9 27be
00000280: 84c3 dabd 45b3 703d 9e55 483d 0959 c33d
00000290: 1385 fcbd 9bdd 47bd 2a65 82bd e1ee 60bb
000002a0: 31cd 0dbe 5f58 f7bc 107c e6bd 8592 893d
000002b0: 0813 00be fc78 233d 6c08 e03a fe88 22bd
000002c0: 0c3d 7f3d f0bf 4bbd e9ef ee3d d8b7 10bc
000002d0: b2e5 00be 4795 ee3d 16ab ccbd df85 34bd
000002e0: e00a eb3d 1624 b43c c9ff 14be 1531 a4bd
000002f0: 4237 d33a 4027 7cbd d3c7 233d 00d1 72bb
00000300: 949c 663d dcc5 94bd d765 71bd 4dd9 8a3d
00000310: fcc7 cf3d 3966 b83c 34d3 febd 9882 2dbd
00000320: bb25 09be 0b88 833d d2c0 8f3d b4a4 8c3d
00000330: 6a1a fbbd fd35 733d 975b 10bc 35ae 813d
00000340: 90dd 1fbc f45f b03d 23f9 c6bd 97c0 7a3b
00000350: f28c 06be b5f4 2dbd 2977 f0bc ad8a ec3c
00000360: a4a3 a13c abe2 323d d16c 3ebd 2ec1 553d
00000370: ce0c ecbd 168b bbbd 4493 473d 4fec f9bc
00000380: 2658 36bd 3044 76bd 300a 6c3c 080c eabd
00000390: 096e 2d3c 21b1 4dbd 9c9a 533d c9ac 703d
000003a0: 166d e6bd 56f2 bd3d 3ae6 c1bd d783 b8bd
000003b0: 2b0f c4bd 7b9b 1a3d 945f f7bb e58a 95bd
000003c0: 4d5d 3cbd 234a a0bd c6b4 bf3d 34ed 933c
000003d0: bbe4 083e 4b7e a33d 6c7e 763d 2d41 b6bc
000003e0: bd5d b2bd 2e5e bf3b 49da a5bd cf25 b9bd
000003f0: a2ac abbd 3091 0d3e d8e9 913d 8408 aebd
0.022720274 -0.031180222 -0.06662722 -0.08640264 -0.04344035 -0.058842238 -0.08683458 0.09963982
-0.11041919 -0.09084666 0.0670601 -0.05772496 0.08689469 0.015616819 -0.09417412 0.056771547
-0.11183856 -0.11253599 -0.13842486 -0.067009695 -0.1085817 0.055542577 -0.07105584 -0.00025767335
0.06670418 -0.101695724 0.011014093 -0.10589538 -0.013428141 0.06767298 -0.07512906 0.08257841
-0.080991134 -0.064362675 -0.07528919 -0.12323326 -0.12399993 -0.010823097 -0.07577511 0.07264197
0.10127606 -0.08977169 -0.04329845 -0.13281462 0.05836965 -0.045743983 -0.011251955 0.09267226
0.05750088 0.09708851 -0.027690854 -0.101726554 0.095979616 -0.12408302 0.025793117 -0.04567833
0.08580516 -0.10284345 0.06666193 -0.1209391 -0.08189889 6.055448e-05 0.056850623 -0.040905934
0.074267976 0.09861858 -0.07761003 -0.1472414 -0.11463431 -0.110695146 -0.121399805 -0.12354439
0.037247524 0.015403941 -0.047772314 0.09189763 0.04877217 -0.003543429 -0.01639315 0.12068046
0.052272122 -0.123741604 -0.050289426 -0.11631815 -0.11865711 -0.08279567 -0.023144808 -0.097390585
-0.13036436 0.106629975 -0.128641 -0.079153985 0.01795458 0.043821458 -0.121958286 0.06479514
-0.08666323 -0.118526556 0.121214844 0.015986055 -0.11460176 -0.110331446 -0.008160285 0.010869322
-0.13860111 -0.079118535 -0.0802075 0.000873254 0.08893219 -0.09043511 -0.027733369 -0.022985518
0.08269103 -0.08951721 -0.030521076 -0.08479292 0.013166989 -0.111004114 -0.10448653 -0.0653467
0.04375883 0.105609246 -0.004595394 0.060277045 0.013620019 0.10223668 0.010574517 -0.05235456
-0.04916415 -0.029546048 -0.020657519 -0.10492668 -0.018802056 -0.030341545 -0.11244089 -0.0752375
0.07985712 0.04101969 -0.021832447 -0.0760039 0.084283486 -0.10199567 -0.044401534 0.050750088
0.039607428 0.04108662 -0.10274127 0.045735557 0.029058073 -0.086399615 -0.10393116 -0.009762457
0.09313065 0.04493009 -0.12835616 -0.13184524 -0.106701344 0.08536497 0.054981075 -0.16391744
-0.10681823 0.058764715 0.048909776 0.095384665 -0.123300694 -0.048795324 -0.06366952 -0.003432207
-0.13847806 -0.030193506 -0.11254132 0.067173995 -0.1250726 0.0399103 0.0017092354 -0.039681427
0.06231408 -0.049743593 0.11666853 -0.008832894 -0.12587622 0.11649566 -0.099935696 -0.044072982
0.114766836 0.021989863 -0.145507 -0.08017174 0.001611449 -0.06156087 0.03998549 -0.0037050843
0.05630167 -0.07264301 -0.058935013 0.06779728 0.10145566 0.022509681 -0.124426275 -0.042360872
-0.133933 0.064224325 0.070191994 0.06867352 -0.122608975 0.05937766 -0.008810899 0.063320555
-0.009757414 0.086120516 -0.09715488 0.0038261765 -0.13139704 -0.0424697 -0.029353695 0.02887472
0.01973135 0.0436732 -0.046490494 0.052186184 -0.1152588 -0.09157388 0.048724428 -0.030508189
-0.04451766 -0.060123622 0.014406726 -0.11428076 0.010585316 -0.05021775 0.05166112 0.05875853
-0.11251275 0.092747375 -0.0946774 -0.090095215 -0.095732056 0.037745934 -0.0075492356 -0.07301883
-0.045987416 -0.078266405 0.09360652 0.018057443 0.13368504 0.07983073 0.06017916 -0.022247875
-0.087092854 0.0058400845 -0.08098275 -0.090404145 -0.083825365 0.13824916 0.0712468 -0.08497718

sequential/dense_1/MatMul_bias f4 [224]
00000000: 6263 92bc 4529 b83c fa98 3ebd b7ec 76bc
00000010: 1c65 ebbc 28d9 7bbd 204d d7bb d310 16bc
00000020: c4dd b93d f427 3fbd 6e76 193d ae5f 27bd
00000030: 9bdd edbd 66f0 9c3c ad90 fdbc 0b38 acba
00000040: 45f6 4abd a457 cfbc bb9a 0fbd e91d 15bc
00000050: 6aa3 51bc 9a5b 9abb 1f0c d5bc d93a 0abc
00000060: 0dec 913d 4541 343c a1f2 b7bc 40a0 95bd
00000070: 7c0e 23bd d32a 693d 475d 85bd 801a 083c
00000080: 15a1 92bc d905 e63b e0f7 f0bc 5023 a2bb
00000090: 6cf7 41bd 4285 7bbc 913e 193d 6e5f 5c3b
000000a0: 525c bc3b 2071 443d 7716 5e3d 82e1 043e
000000b0: 61c6 c4bc dbc0 cebc f3a2 c63c a4fd c1bd
000000c0: ef58 d5bc 99f2 0a3d d787 1bbd 75d7 86bc
000000d0: 2f06 acbc c2b3 efbc 6dad 093d 65ac 1f3d
000000e0: 87a8 12bd 6d85 24bc c166 5fbd 23a5 a8bc
000000f0: 3056 fb3b 019c 1c3b ec8e 573c ccb6 313d
00000100: d0f5 40bd f7d7 89bc bb0c 3c3a 448b a0bc
00000110: 1393 2e3d 7aff b8bc 82b9 1f3d 87ad 37bd
00000120: 3f9b b5bb f5d5 debc 3860 acbc d47b 6bbd
00000130: 4da1 ad3d bde6 07bd 9db2 d0bc d6d4 96bc
00000140: 95a0 12bd deec 4a3c 87f8 d7bc 3e6c a1bc
00000150: 795d 16bb 7f3b 6c3d 27bf 2dbd 4fd0 43bd
00000160: ecdb 89bd b5da 633c 5862 8f3d ec28 cdbc
00000170: 7238 ba3b 4c57 22bd 2b28 c2bc 51a7 25bc
00000180: 5ddc 5fbc 20d9 9abd 5253 a53d 85a4 e93d
00000190: 1c4d 56bb b8c7 1dba 49c6 383c af6c 17bd
000001a0: 356a 7d3c f678 5cbd e240 68bc 4576 11bd
000001b0: c7db a4bc acd6 0bbc b840 013c 75ef 2bbd
000001c0: 8387 4ebc 1f66 8fbc cb76 babc 7343 663d
000001d0: 63ff 04bd dc24 c3bc 850f a33d 0908 85bc
000001e0: 39b1 51bd 75b3 c03b 2460 c43d 056c 02bc
000001f0: 849e f3bc e8e6 ffbc 46a9 23bd e179 15bd
00000200: 208a 53bb 0e1a 3a3d 871e 093a 99d1 46bd
00000210: 01e7 7c3c b01b d3bc b378 30bd f735 fdbb
00000220: 4b7d a63c 1e6d 94bc 537c a43b dc97 5bbc
00000230: 48e8 4ebd 30ff 1836 c40f d33a 390c e43c
00000240: 11f6 03bd ffc9 043d cfc8 cabd ac0f c9bc
00000250: f482 11bd 5cb6 d03c 80b1 cfbc 51fc d03d
00000260: b748 d13d c158 a53d f35f 83bb c199 f33b
00000270: 7ceb af3d 5850 51bd b9e2 09bd 115c 833d
00000280: 041a 9ebc fd4e b2bc 60e4 55bc d403 2fbd
00000290: 707c 93bb 0c1d 103e 2487 1c3d af09 d5bc
000002a0: 4669 55bc 5e87 e7bc 7f5f 0fbd 7770 0abd
000002b0: d4da bdbc 8556 2fbc 58b0 1dbd c1fe b6bc
000002c0: e963 043c b5e6 4b3d 56a2 06bd 5f3a 833c
000002d0: 7905 5f3c 6415 f6bc 2a03 9cbc 1a14 a3bc
000002e0: 445a 32bc d3d0 263d 7f2e 9dbc a2f7 21bd
000002f0: 4193 e0bc bb32 10bc f0cb b0bc 064d 27bd
00000300: 041d e5bc 1166 e83b fc81 10bc d98a e2bc
00000310: 6973 ffbc 4924 083c 14ff 20bd fda2 643d
00000320: 4714 b73c 187a dbbc 7a38 913d 424e d5bc
00000330: 3791 63bd 95b8 bf3d f207 04bd 331b 913c
00000340: d200 7cbc c70a 35bd 75c6 bbbc 7f03 e1bc
00000350: 198b 3ebc 79d0 02bd 9194 bebc a3fc 2bbd
00000360: 3054 03bd 6e40 17bd a5ed 15bd fef8 8bbc
00000370: 2b89 ddba b7d3 31bd fe61 8fbc 2f0a e5bc
-0.017869655 0.022480616 -0.04653261 -0.015071086 -0.028734736 -0.061486393 -0.0065704733 -0.009159285
0.090755016 -0.04666896 0.03746646 -0.04086273 -0.116145335 0.0191576 -0.030952776 -0.0013139261
-0.049551267 -0.025310345 -0.03505967 -0.009101369 -0.012795309 -0.004710627 -0.026006756 -0.008436882
0.07125101 0.01100189 -0.022454562 -0.07305956 -0.039808735 0.056925606 -0.06511932 0.008307099
-0.017899076 0.00701974 -0.029415071 -0.0049480572 -0.0473551 -0.015351595 0.037413184 0.0033626216
0.00574831 0.047959447 0.054220643 0.1297665 -0.024020376 -0.025238445 0.024247622 -0.09472206
-0.026043383 0.033922765 -0.037971344 -0.01646016 -0.020999042 -0.02926052 0.033612657 0.038982768
-0.03580525 -0.010041577 -0.054541353 -0.020586556 0.0076701865 0.0023896697 0.013156634 0.04338722
-0.047109425 -0.016826613 0.0007173528 -0.019597657 0.04262073 -0.022582758 0.038995273 -0.044843223
-0.0055421884 -0.027201632 -0.021041974 -0.05749114 0.08478031 -0.033179034 -0.025475794 -0.018412035
-0.035797674 0.012385575 -0.026363624 -0.019704934 -0.0022943898 0.057673927 -0.042418625 -0.04780608
-0.067314 0.013907124 0.070011795 -0.025043927 0.0056829983 -0.039634034 -0.023700794 -0.010110692
-0.013663379 -0.075609446 0.08072533 0.11408333 -0.003269977 -0.0006018835 0.011277744 -0.036968883
0.015467216 -0.053826295 -0.0141756255 -0.03551318 -0.02012433 -0.0085350685 0.007888965 -0.04197641
-0.012605551 -0.01750475 -0.022761723 0.05621667 -0.03247012 -0.023821287 0.079619445 -0.016239183
-0.051194403 0.005880768 0.0958865 -0.007960324 -0.029738672 -0.031238034 -0.039956354 -0.036493186
-0.0032278374 0.045435004 0.0005230684 -0.04853973 0.015435935 -0.025770038 -0.043083858 -0.0077273804
0.020323416 -0.018118437 0.0050197034 -0.013402905 -0.05051449 2.2798304e-06 0.0016102721 0.02783786
-0.03221709 0.0324192 -0.099015824 -0.024543606 -0.035525277 0.02547758 -0.025353193 0.102043755
0.102189474 0.08073569 -0.004009241 0.0074341004 0.08589837 -0.051102012 -0.033663485 0.06414045
-0.019299515 -0.02176618 -0.013054937 -0.04272826 -0.004500918 0.1407358 0.038214818 -0.026005594
-0.013025587 -0.02826279 -0.03500318 -0.03379866 -0.023175634 -0.01070178 -0.038498253 -0.022338273
0.008080461 0.049780566 -0.03286966 0.016019044 0.013612145 -0.030039497 -0.019044477 -0.019907046
-0.010885779 0.040726494 -0.01918721 -0.0395428 -0.027413966 -0.008801158 -0.02158162 -0.04084494
-0.027967937 0.0070922454 -0.008820053 -0.027654098 -0.031182962 0.008309432 -0.03930576 0.0558195
0.022348536 -0.026791617 0.0709085 -0.026038293 -0.05555841 0.09361378 -0.03223414 0.017713165
-0.015381055 -0.04419973 -0.02292178 -0.027467487 -0.011629843 -0.031937096 -0.023264201 -0.04198898
-0.03206271 -0.03692668 -0.03660359 -0.017086502 -0.0016901841 -0.043414798 -0.017502781 -0.027958957

sequential/dense_2/MatMul/ReadVariableOp/transpose f4 [48, 224]
00000000: 7c65 be3d 1c8f fb3d 617b c4bd d113 b6bd
00000010: 082f 9e3d 8ca7 a13d b228 38bc 81ec c13d
00000020: a5ae 06bd db60 96bc f23a e63c a1ca 563d
00000030: 65a7 213e 17ac 16bd 84db ba3c 81ef 643c
00000040: dbd8 df3d 0bb6 ee3d cbd0 903d 9b04 9abd
00000050: 76fb 5d3d 07ef fbbd e23b 0f3e 075a 6b3d
00000060: e771 dbbd 9827 ffbd d921 6b3d e3ab 053e
00000070: e9ac 653d 6466 df3b 1ac0 97ba 64bf 0ebd
00000080: 450d c23d ba1b 03be a694 93bd af96 2d3d
00000090: 529d 02bd 66b8 abbc ba92 0ebe 66bd bb3d
000000a0: ed99 1ebe ac72 7d3d 2c1f a73d 8c74 c7bd
000000b0: cb5e 743d 661b c23d 7b6d 95bd 9c24 d23d
000000c0: a9ca 06be cbcb 2abe 6e77 d2bd ffc4 823d
000000d0: 4a16 9d3d 66b0 4bbc b1cc 123d 3734 143c
000000e0: c0f9 e2bd 92f3 263e 06ae 16be ba82 7a3d
000000f0: 1d63 9fbc b541 acbc eba7 933d c15f 4a3d
00000100: 7787 9abd ee7f ecbd e9f3 90bd 0192 1d3d
00000110: 640b f53d 00cb 70bd fcb5 8f3d a68c d6bc
00000120: e791 923d 9440 a8bd 74de 1e3c c3e2 27bc
00000130: a5a1 f9bd ddbe 4bbd 51b2 953d 844b 7fbd
00000140: bc07 313d 5790 ed3d a58a b73d 9fe7 f7bc
00000150: dff7 82bd 1909 8c3b 98de 86ba 8110 3d3d
00000160: 5b73 403d 92b5 d03c dab3 b33d 2b98 193e
00000170: c0a2 a83d 4acc e53d c472 9dbd 877f 6b3d
00000180: 5bee 4fbd 0438 01be bfd7 59bd 4708 8e3d
00000190: ef59 023e 544e 893d 755d f43d 1b57 20be
000001a0: eb04 dd3d f16a d1bc b0e2 4f3d 9f7f b1bd
000001b0: b2e7 583d f91d 933d 778d 4c3a 64b6 ff3d
000001c0: 7ab8 f63c b76d b73d ea7d c6bd 4c16 d93d
000001d0: 20d1 b53c f565 c6bd ded9 cd3d e5d7 143a
000001e0: 5302 9cbd 5ccc 49bd e750 e13b a3d1 933d
000001f0: 4cb4 293d 6735 c13d 05e5 a7bb 78a6 e9bd
00000200: 2b5e b93d 2907 b53d dbd1 8b3a 7bd3 92bd
00000210: 8363 7c3d 3171 183e ca50 283e 12fd 7b3d
00000220: 8350 d53c 2eee ea3d c4fb ae3d 7ab0 8bbc
00000230: 756c fdbd dd34 fabd ea15 d2bd 2e66 f9bd
00000240: c6d5 e83d 5f30 d93c 7334 5a3d fdd3 1bbc
00000250: e125 ea3d 3294 3d3d 5347 e33d e8ba 97bd
00000260: bfe9 733c 6648 ae3d e503 11be bc7d 14be
00000270: 9700 893d b880 8c3d c83e 083d 4895 203d
00000280: 60b9 6abd a3ab 133e 3386 5ebd 5919 c43d
00000290: f1ba 8fbd c164 12be 14b8 903d 513a 92bd
000002a0: 40fc c7bd 8c10 50bb de34 083e 5e29 f2bc
000002b0: c613 943d dbcb abbc ac29 10bd 3082 17be
000002c0: 6f29 5abb a737 29bd ebee efbd 90a1 25bd
000002d0: be7a 413d 7960 163c be5e 2e3d 4ddf 083d
000002e0: 5051 55bd 101f 9abd d69b 173d 85f5 a6bc
000002f0: bac1 efbc c5ea 5fbd f9c6 993d 4151 b13d
00000300: ffef aebd 4b3c ee3c 8c48 a83c 91e8 2dbc
00000310: 2ecc 393d d5db 60bd b18a 5ebd 283b edbc
00000320: 1cbf 653c 201d 58bd 0be6 52bd 8ee1 e2bc
00000330: 6dda 073d 87cd 77bd 770d 22bc 5497 f43d
00000340: 5819 e3bd 4370 e6bd 6cdf c03d 42c4 13be
00000350: 5900 4cbc 3e0a cc3d e18b 523d b9e0 303e
00000360: f9cb a53d 5a1c 353e dd4a e7bd 89c0 9dbd
00000370: 8aeb fc3d 6537 11be b6c2 013e 2477 f0bd
00000380: dfd9 da3d c28d 8abd ca9e 26bd 1ef5 17bd
00000390: 087b f43d a841 2d3e 1787 ac3d 43d3 4dbd
000003a0: 71e9 25be 5c02 ecbd 567a eb3d 831d 123e
000003b0: 27fb 5a3d 6c5a 0abd a083 bf3d 0b00 583c
000003c0: 7346 2f3d e60b 33be 31c4 a5bc 38f1 bc3c
000003d0: dcbd 853d 681c 3a3d 7a05 a73d fd1a e23d
000003e0: 1f9b e93d 43a6 003e 4e9f 8f3d 30bb 563d
000003f0: 77a5 fa3d e3bf 0e3e a6dd 333b 77ed 853d
0.092967 0.12283155 -0.09593845 -0.088904984 0.07723814 0.07893285 -0.011240171 0.09468938
-0.032881398 -0.018356731 0.02810428 0.052439336 0.15786512 -0.03678521 0.022809751 0.013973118
0.10930034 0.11655816 0.07071074 -0.0752041 0.05419489 -0.1230145 0.13987687 0.057458904
-0.107150845 -0.12458724 0.057405327 0.13053851 0.056073103 0.006817626 -0.0011577636 -0.034850493
0.09475187 -0.12803546 -0.07206087 0.04238003 -0.031888314 -0.020961951 -0.13923159 0.09166984
-0.15488406 0.061876938 0.081602424 -0.097390264 0.059660714 0.09477882 -0.07296272 0.10260889
-0.13163246 -0.16679303 -0.10276686 0.0638523 0.07670267 -0.012432193 0.03583974 0.009045652
-0.11082792 0.16303852 -0.14714822 0.061159827 -0.01945644 -0.021027425 0.07209762 0.049407724
-0.07545369 -0.11547838 -0.07077772 0.03846932 0.11965063 -0.058787346 0.07017133 -0.026190113
0.07156735 -0.08215442 0.009696592 -0.010246935 -0.121890344 -0.04974257 0.07309402 -0.062327877
0.043220267 0.11599796 0.08961991 -0.030261813 -0.06394934 0.0042735455 -0.0010289727 0.046158317
0.04698501 0.025477204 0.08774538 0.14999454 0.08234167 0.11220606 -0.076879054 0.057494666
-0.050764423 -0.12619025 -0.053184267 0.069351725 0.1272962 0.06704393 0.11931888 -0.15658228
0.10791954 -0.025563689 0.050753295 -0.0866692 0.052955337 0.07183451 0.00078030623 0.1248596
0.030117262 0.08956473 -0.09691985 0.10599956 0.022194445 -0.096874155 0.100513205 0.0005677923
-0.07617631 -0.049267158 0.0068760994 0.072177194 0.04143171 0.09434014 -0.005123737 -0.114087045
0.09051164 0.08839256 0.00106674 -0.07169243 0.06161834 0.14886929 0.16437069 0.061520644
0.026039368 0.114712104 0.08544114 -0.017051924 -0.12374202 -0.12217114 -0.10258086 -0.12177692
0.11368899 0.026512323 0.053272676 -0.009510991 0.11433006 0.04628391 0.110975884 -0.074086964
0.014887272 0.08509903 -0.14161642 -0.14501089 0.06689566 0.06860489 0.033262998 0.039204866
-0.057305694 0.14420943 -0.0543272 0.09575147 -0.07018078 -0.14296247 0.0706636 -0.07140029
-0.0976491 -0.0031748144 0.13301417 -0.029560741 0.07230334 -0.02097123 -0.03519599 -0.14795756
-0.0033288857 -0.04131284 -0.11715492 -0.04043728 0.047236197 0.009178274 0.042570822 0.03341608
-0.0520795 -0.07525456 0.03701385 -0.020380745 -0.02926718 -0.054667253 0.07508654 0.08658076
-0.08541869 0.029081484 0.020542406 -0.01061453 0.045360737 -0.05489715 -0.054331485 -0.028958872
0.014022615 -0.05276215 -0.051488917 -0.027695443 0.03316729 -0.06049874 -0.009890906 0.11942926
-0.11088818 -0.11251881 0.09417614 -0.14430335 -0.012451255 0.09962891 0.05140293 0.17273225
0.08095545 0.17686597 -0.11293576 -0.07702739 0.12349613 -0.14181288 0.12671933 -0.11741474
0.10686087 -0.067653194 -0.040678777 -0.037098996 0.11937529 0.16919577 0.08424204 -0.050250303
-0.16202332 -0.115238875 0.11497943 0.1426907 0.053462174 -0.03377764 0.09351277 0.013183604
0.042791795 -0.17485008 -0.020235153 0.02306424 0.065303534 0.045437247 0.081553414 0.11040304
0.1140654 0.12563424 0.07012807 0.05242461 0.12238591 0.13940386 0.0027445345 0.065394334

sequential/dense_2/MatMul_bias f4 [48]
00000000: 2ea6 e83c 4a6b c03d 3960 1b3e a509 0dbd
00000010: 2f62 0f3e 4de3 e3bb 799b 1b3e ed4f 5bbd
00000020: 8afd 853d f524 48bc 5294 ab3d 5c94 693d
00000030: 3bac 77bd 9a83 7fbc fdc0 1ebd 72c0 35bd
00000040: 2b11 193e af87 49bc 929f 193e a62d 953c
00000050: 28c1 bebd 50cd 083d 5915 a8bc 0b70 153e
00000060: d068 b4bc f409 88bd c92c 20bd 333f cdbd
00000070: 49a4 a8bc e243 92bd 5cff 28bd 314c 1ebd
00000080: 3059 0d3e 1222 ee3d b0ab 53bd f5cf 1d3e
00000090: ac0a 44bc 075e f1bc 6eb1 f3bc 259c 1d3e
000000a0: 22e9 193e c9a9 34bd 0b64 8b3c a4c0 ddbc
000000b0: f89b 54bd 54e0 1cbd 733d dbbd aee5 a3bd
0.028399553 0.09395464 0.15173425 -0.034433026 0.14002298 -0.0069545866 0.15196027 -0.05354302
0.06542499 -0.0122158425 0.08377899 0.057026252 -0.060466986 -0.015595341 -0.038758267 -0.044372983
0.14947955 -0.012300416 0.15002277 0.018210243 -0.093141854 0.033398926 -0.020517992 0.14593522
-0.022022635 -0.066425234 -0.03910521 -0.1002182 -0.02058615 -0.07141854 -0.041259155 -0.03864688
0.13803554 0.11627592 -0.051677406 0.1541136 -0.011965435 -0.029463781 -0.029747691 0.15391596
0.1503034 -0.044107232 0.017015478 -0.027069397 -0.051906556 -0.038299873 -0.1070508 -0.08002792

sequential/dense_3/MatMul/ReadVariableOp/transpose f4 [1, 48]
00000000: 2ffb da3b 7d67 113e 8e1b 833e 0136 0fbe
00000010: b8b4 ce3d 8b42 7f3e bb04 5d3e 61be 24be
00000020: f7d9 6e3c 30c5 98be f2e7 493e dd98 e53b
00000030: c58b 8bbd 0c75 8fbd 0250 b63c 6c08 98be
00000040: 7f4c 823e 25d6 c8bc 7151 6d3e 8e66 473d
00000050: a6bb bfbd e37e 0f3d fb5c 87be 2cd6 053e
00000060: 2938 83be 98a8 6cbe 5c6a a6bb dbc5 53be
00000070: dd23 77bd bd7d 8abd 110c 1cbd eaad 8fbe
00000080: b1a8 383e e5e2 f63d b71b 91bc a7ea 943e
00000090: 54d7 a7be 4a82 03bd 4270 98be 3c15 8e3e
000000a0: 19f4 3b3e 45da 93be 080c 113d 8070 80bd
000000b0: 1178 27be ddd4 8fbe ceb7 febd 62d2 33bc
0.0066827754 0.14199634 0.2560696 -0.13985445 0.10093063 0.24927728 0.21583836 -0.16088249
0.014578334 -0.29837942 0.19717386 0.007006748 -0.06813768 -0.07004747 0.022254948 -0.29693925
0.25448987 -0.024516175 0.23175599 0.04868179 -0.09361963 0.035033118 -0.26438126 0.13069981
-0.25628784 -0.23111188 -0.005078597 -0.20680945 -0.060336936 -0.06762264 -0.038097445 -0.28062373
0.180331 0.120549954 -0.01771341 0.29085276 -0.3278147 -0.032106675 -0.29773146 0.27750576
0.18354835 -0.28877464 0.035411865 -0.06271458 -0.16354395 -0.2809209 -0.12437402 -0.010975452
